checkpoint24node.pth (torch, 11594 bytes, 15 tensors)

fc1.weight f4 [12, 25]
000000 83 d3 0b 3e ee 58 c0 3d 36 25 23 be 03 62 32 be
       0.13654904 0.09391962 -0.15932164 -0.17420201
000010 fa e1 8a 3d fa 0f 8e 3d 41 95 23 3e ed 3a 66 3d
       0.06781383 0.06936641 0.15974905 0.05620854
000020 50 27 c8 3c 17 f9 e3 3d ae 6d 10 be 80 56 cf 3a
       0.024432808 0.111314945 -0.1410434 0.0015818626
000030 f7 05 49 be 08 5e 73 bd 0a 50 c3 bd 58 87 40 bd
       -0.19631182 -0.059415847 -0.095367506 -0.047004074
000040 2a 99 48 be 73 8d b0 3d 79 5b b4 3d 2c 43 f0 3d
       -0.19589677 0.08620729 0.088065095 0.11731562
000050 32 a1 c5 3d 20 8a fe 3c 19 27 1e 3e 70 a8 ee bd
       0.09649886 0.031071723 0.15444602 -0.11653221
000060 b0 9f 47 bc 5e 62 11 3f 22 a1 f8 3e 2e 12 0a bf
       -0.012184069 0.5679072 0.48560435 -0.5393399
000070 31 f1 14 3f 3d ae 3c 3f cf e0 3e 3f 7c e9 01 3f
       0.5818053 0.73703367 0.7456178 0.50746894
000080 80 14 e2 bf fe ee 1b 3f 1f 4d 80 bd c5 7e 10 3f
       -1.7662506 0.6091155 -0.0626471 0.56443435
000090 e2 8b e8 bf ac ae 04 3f ef c0 21 3f 82 c7 09 3f
       -1.8167689 0.5182903 0.6318502 0.5382005
0000a0 95 87 c3 be b6 f7 04 3f 63 56 23 3f 0c 9e 15 3f
       -0.38189378 0.51940477 0.6380369 0.58444285
0000b0 60 fe 02 3f be 09 0e 3f 5e 0c b2 bf e6 54 1d 3f
       0.51169395 0.55483615 -1.3910024 0.6145767
0000c0 02 42 07 3f ca d3 f3 3e d7 2c ba be a2 98 c8 bd
       0.52835095 0.4762252 -0.36362335 -0.097947374
0000d0 bb 1e af bd 28 04 8c 3e a6 18 4e 3f 3a b1 40 be
       -0.08550783 0.2734692 0.8050636 -0.18817607
0000e0 4a 33 cf bd 88 55 32 be da 99 26 3e 7a 41 88 3f
       -0.101172045 -0.1741544 0.16269627 1.0644982
0000f0 cf 3c 00 be 9c cb 39 be 18 66 b7 be 7c 61 fd 3d
       -0.12523197 -0.18144077 -0.3582008 0.12372109
000100 ab 4a 99 3e 96 c2 a6 be bd c2 7c 3e de 09 90 be
       0.2993978 -0.32570332 0.24683662 -0.28132528
000110 84 b6 e7 bd 3d 4f c7 3e a9 5d 27 be 1f fb a3 bd
       -0.11314109 0.38927642 -0.16344322 -0.08006882
000120 70 09 63 be de 14 61 bd cf 1b c9 3e 6c 08 e4 3c
       -0.22171569 -0.05495154 0.3927903 0.027836047
000130 94 f9 37 bd 04 4d 40 bd 2f e8 62 bd a0 c3 86 bd
       -0.04491575 -0.046948448 -0.05539721 -0.06580281
000140 9b 08 ad 3d dc d9 c5 3d 0e 60 99 bc 20 ca 16 bc
       0.08448907 0.09660694 -0.01872256 -0.009203464
000150 15 81 e9 3d e6 b3 9b 3d bb 74 8d 3d 33 0d 60 bd
       0.114015736 0.07602672 0.0690703 -0.054700088
000160 8f 12 86 bd 5e b0 84 3d c0 1c 27 bd 78 27 78 bd
       -0.065465085 0.06478952 -0.040798903 -0.060584515
000170 49 ed 6c 3d 6d f5 42 be 5a 55 22 3d b8 a4 5f bd
       0.05784348 -0.19038935 0.03963218 -0.054600447
000180 25 50 0d be 6c 3d 5f 3d fa 59 6c 3d 43 c8 18 3d
       -0.13800104 0.054501936 0.057702996 0.03730036
000190 8b 8b ee be 9c ab f9 be 03 db 72 3e de a7 d5 be
       -0.46590838 -0.4876374 0.23716359 -0.41729635
0001a0 a7 95 a6 be 2e d5 eb bc 37 82 08 3e 7e f4 15 3f
       -0.3253605 -0.028788175 0.13330923 0.5857619
0001b0 33 8d 9e bc 24 e1 0e bf 1d cf 16 3e f1 bd 8c 3e
       -0.019354438 -0.5581229 0.14727445 0.27488664
0001c0 b9 78 b4 bf ef 66 9e 3d 36 8b c3 be 94 9e 15 bf
       -1.4099342 0.07734477 -0.38192147 -0.58445096
0001d0 e8 02 11 3f 26 4c b3 3f 1c 12 1c bf ce 3a 02 bf
       0.5664506 1.4007614 -0.6096513 -0.5087098
0001e0 e6 2b b7 3c 7b 06 2c bc 8d b8 83 3f 06 32 a0 be
       0.0223598 -0.010499592 1.0290695 -0.31288165
0001f0 71 5d 09 bf bf 26 15 bf 97 86 12 bf 8d 41 13 3f
       -0.53658205 -0.58262247 -0.5723662 0.575219
000200 d6 1e 17 bf d9 e0 d2 be 6e 2b 8b be 2a bc 69 be
       -0.59031427 -0.4118717 -0.27181572 -0.22825685
000210 d7 41 8d 3e 9a 81 2a 3f 66 61 d3 be 04 f5 d5 3e
       0.27589294 0.66604006 -0.41285247 0.41788495
000220 89 27 09 3f 83 7a 7e 3f a5 3f 16 3f 0e df 8a be
       0.5357595 0.9940569 0.58690864 -0.27123302
000230 b7 48 83 3e 05 eb ed 3e f6 85 22 bf 15 3b 86 be
       0.25641415 0.46468368 -0.6348566 -0.2621695
000240 ab 8a c1 be ff 01 eb 3e fa 72 86 3e 5c 60 60 be
       -0.37801108 0.4589996 0.26259595 -0.21911758
000250 f2 c3 ef 3e dc 89 d9 be fd 5a 06 bf 2f 34 f0 bc
       0.46829182 -0.4248799 -0.5248259 -0.029321758
000260 05 1c 3e be 48 58 61 3e 70 51 5a 3f d5 90 5c bd
       -0.18565376 0.22006333 0.85280514 -0.05384906
000270 5a 0e 0e bc a1 99 1c be f2 90 64 3e 78 12 85 3f
       -0.008670414 -0.1529298 0.22320917 1.0396261
000280 5c ed 8b be 07 ea 9b be c4 89 8f be aa da de 3d
       -0.27329528 -0.30451986 -0.28034794 0.108815506
000290 b5 67 a7 3e 18 24 bf be 45 2a 92 3e ed 84 25 be
       0.3269631 -0.37332225 0.28547874 -0.16163988
0002a0 80 12 b3 bd 14 25 87 3e 31 e3 ee bd 45 22 b5 bd
       -0.08743763 0.26395476 -0.11664427 -0.08844427
0002b0 9e fc 83 be 95 1f d3 3c 85 73 94 3e eb 2f 2c bf
       -0.2577867 0.025771895 0.28994384 -0.67260617
0002c0 08 62 33 bf 08 35 b7 bf 87 5b 26 bf 0f 41 91 be
       -0.7007146 -1.4313059 -0.6498341 -0.28369948
0002d0 a3 1c 3d bf 30 2e 39 bf f2 50 0f 3f ee 69 76 bd
       -0.7387182 -0.723361 0.5598289 -0.060159616
0002e0 a5 8c 2e bf 6c 9b 1b bf d8 4a a4 3e 82 1b 65 be
       -0.68183357 -0.6078403 0.3208835 -0.22373775
0002f0 10 07 14 bf f2 a4 28 bf 9f bd 6d 3f e0 94 9b 3e
       -0.57823277 -0.65876687 0.92867464 0.3038702
000300 9a 5f 20 3f 07 00 2a 3e 3e ef 25 bf 82 4d 19 3f
       0.62645876 0.16601573 -0.6481818 0.5988389
000310 2b 76 fa 3d b5 ce 66 3f 14 e9 c4 3d e2 19 1a bf
       0.1222957 0.9015916 0.096147686 -0.60195744
000320 10 13 b7 be 89 29 07 be a4 89 6a 3f 5a ab 4e be
       -0.3575673 -0.13199438 0.9161627 -0.20182553
000330 e8 3a 9e be 87 d5 d0 bd 8a c1 96 3e 57 dc d1 3e
       -0.30904317 -0.10196977 0.29444534 0.40988418
000340 82 ff 72 be bf 07 b3 be a0 8b f7 be fe 26 17 3f
       -0.23730281 -0.34966847 -0.48348713 0.5904387
000350 b4 c5 81 3f cf 9e db be e9 90 5b be c3 0c 4c bf
       1.0138459 -0.428946 -0.21441998 -0.7970697
000360 bb 3b 63 3f 26 c7 fa be a4 ee 9a be 90 e4 a9 be
       0.88763016 -0.48980063 -0.30260193 -0.33182192
000370 ff 2c 55 be b3 9b cd be 35 da d9 be 3e b4 fb be
       -0.20817946 -0.40157852 -0.4254929 -0.4916095
000380 69 fa 93 be 64 37 e0 3e c2 fd c3 3e 14 6b b7 3f
       -0.28901985 0.4379226 0.3827954 1.4329553
000390 c3 2b 05 3f 12 3f f2 3e 6b bb 30 3f 96 0d dd 3e
       0.520199 0.47313744 0.6903598 0.43174428
0003a0 b2 bb ca 3f 21 58 89 be 9b b0 ae be df 4f 12 3f
       1.583853 -0.2682505 -0.34119114 0.57153124
0003b0 ee 2b 31 c0 21 cc 4f bf 26 85 66 be 3b d3 ab be
       -2.7683063 -0.8117085 -0.2251173 -0.33559594
0003c0 77 8a b6 3e a5 cf 92 be 51 3b 8a bf 76 ec 8a be
       0.35652515 -0.28674045 -1.0799352 -0.2713353
0003d0 6f de b8 be c8 97 1f 3f 51 3d 9f bf 08 2f 90 bf
       -0.36107203 0.62340975 -1.2440587 -1.1264353
0003e0 c7 13 9a be dd 3b 91 be 0b fa ab be e4 24 16 be
       -0.30093214 -0.28365985 -0.33589205 -0.1466251
0003f0 5a ad 09 3d 51 0b 1a 3e cb 30 74 3f 43 90 89 be
       0.033612587 0.1504338 0.9538695 -0.26867875

fc1.bias f4 [12]
000000 85 3d 69 be 6b 22 a6 be 52 18 a2 41 ad 97 1d be
       -0.22777374 -0.32448134 20.261875 -0.15389891
000010 a4 b3 64 3e ea b0 90 bd c4 76 ca 41 b9 64 93 be
       0.22334152 -0.07064994 25.307991 -0.28787783
000020 79 3c ae bc dd 52 cc 3e 06 b5 d2 41 d2 3e 24 be
       -0.02126907 0.3990697 26.33839 -0.16039589

actor.weight f4 [4, 12]
000000 8a 9f 92 bd 43 64 d4 3e 0e 7e e6 3e c5 3b 91 3e
       -0.07159336 0.41482744 0.45018047 0.28365913
000010 59 05 41 40 fb 3d c5 bf 68 67 38 3e 1c 38 a2 3f
       3.0159514 -1.540954 0.18008196 1.2673373
000020 a0 11 c4 bf c0 2a 13 bf 7c 32 05 3e 61 61 af 3c
       -1.5317879 -0.57487106 0.1300754 0.021408739
000030 00 fe 15 3b 9c 2f 4b bf ac 4d 69 3e d7 ef 9a 3e
       0.0022886992 -0.7936952 0.22783536 0.30261108
000040 99 45 fd bf 9f 36 f0 3f ed d7 68 3e 98 db 82 bf
       -1.9786865 1.8766669 0.22738619 -1.0223265
000050 93 43 ed 3f 3d b0 ea 3e 21 00 80 3e d9 ca 76 3e
       1.8536247 0.45837584 0.25000098 0.24100818
000060 d4 00 2a 3e 2c d7 04 40 ea 01 28 3e 68 58 08 be
       0.16601878 2.075633 0.1640698 -0.13314974
000070 ab e7 90 3e 3d bc 0e 3f c0 57 07 3e fa 50 7f 3f
       0.2830175 0.5575598 0.13217068 0.99732935
000080 4e 24 87 3e 55 4b bb 3f 33 d4 d0 3d ba 65 b8 3d
       0.26394886 1.4632365 0.10196724 0.09003778
000090 ae 1b 84 3d 92 2b 5d 40 0d 3f a6 3c 4c 1e 3f be
       0.06450592 3.4557843 0.020293737 -0.18663901
0000a0 55 07 85 3f 6a 90 2b 3f 99 2f 16 3e d6 97 86 3f
       1.0392863 0.67017233 0.14666595 1.0515087
0000b0 11 41 c2 bc ad 39 32 40 fc 1d 09 3e 1c ef ed bd
       -0.023712667 2.7847703 0.13390344 -0.11617872

actor.bias f4 [4]
000000 00 4b 12 3e bc be 2d 3e 0f e6 aa 3d d2 d6 bd 3d
       0.14286423 0.1696729 0.083446614 0.09269489

critic.weight f4 [1, 12]
000000 e7 ed 82 bb cd e5 59 40 b8 6b a7 c1 24 21 43 be
       -0.0039956453 3.404651 -20.927597 -0.19055611
000010 0e 33 1e 40 48 a1 ca 3f 1c 01 b4 c1 28 6e e7 3f
       2.4718661 1.5830469 -22.500542 1.8080492
000020 70 26 ea 3f fd b3 8b 40 93 01 c0 c1 4e ed e8 bd
       1.829298 4.365721 -24.000769 -0.11373387

exp_avg f4 [12, 25]
000000 04 00 00 00 00 00 00 00 00 00 00 00 00 00 00 00
       6e-45 0.0 0.0 0.0
000010 04 00 00 80 00 00 00 00 04 00 00 00 04 00 00 00
       -6e-45 0.0 6e-45 6e-45
000020 00 00 00 00 04 00 00 00 00 00 00 00 00 00 00 00
       0.0 6e-45 0.0 0.0
000030 00 00 00 00 00 00 00 00 00 00 00 00 00 00 00 00
       0.0 0.0 0.0 0.0
000040 00 00 00 00 04 00 00 00 04 00 00 80 04 00 00 00
       0.0 6e-45 -6e-45 6e-45
000050 00 00 00 00 04 00 00 00 04 00 00 00 00 00 00 00
       0.0 6e-45 6e-45 0.0
000060 00 00 00 00 ea 28 7c a7 ac 9d cc 03 a3 81 cd 3d
       0.0 -3.4994205e-15 1.2026242e-36 0.10034492
000070 ec 0c d3 1b 04 00 00 00 04 00 00 00 39 ba 13 39
       3.4915372e-22 6e-45 6e-45 0.00014088386
000080 04 00 00 80 04 00 00 00 b4 20 14 82 4e c0 3d 00
       -6e-45 6e-45 -1.0882708e-37 5.670951e-39
000090 04 00 00 00 40 77 b2 bd ca 53 1c 2e 9c 7f b4 35
       6e-45 -0.087141514 3.5544713e-11 1.3448184e-06
0000a0 04 00 00 00 57 2e 45 39 c3 b0 db 3c 2e de 0b 00
       6e-45 0.00018804647 0.026817685 1.089894e-39
0000b0 e3 36 06 23 43 fd f6 1b 04 00 00 80 0a 6e da 3c
       7.275777e-18 4.0860953e-22 -6e-45 0.026663799
0000c0 04 00 00 00 04 00 00 00 f1 5e 1c a7 e1 b2 10 85
       6e-45 6e-45 -2.1700817e-15 -6.803702e-36
0000d0 20 e5 1d bf 2a a5 85 9d 04 00 00 80 04 00 00 80
       -0.6167774 -3.5375583e-21 -6e-45 -6e-45
0000e0 3d 52 93 ba 03 f6 82 bf 8e b8 a8 00 44 42 9b 82
       -0.0011239719 -1.0231327 1.5494569e-38 -2.2813238e-37
0000f0 ac aa 6f 81 54 29 22 b8 be 45 25 40 6f b3 9d af
       -4.4019818e-38 -3.86623e-05 2.5823817 -2.868563e-10
000100 b5 88 de b6 b3 34 88 b4 2a 44 81 bf 99 ab 2f c0
       -6.6320304e-06 -2.5370318e-07 -1.0098927 -2.7448485
000110 28 b8 ce aa 65 2a a5 a4 4a 07 64 9d 4a 67 c3 99
       -3.6720735e-13 -7.162916e-17 -3.0179317e-21 -2.0204246e-23
000120 5d 6b 45 be 54 29 22 b8 45 f9 4d 8b 04 00 00 00
       -0.19279237 -3.86623e-05 -3.9669093e-32 6e-45
000130 00 00 00 00 04 00 00 00 04 00 00 00 04 00 00 80
       0.0 6e-45 6e-45 -6e-45
000140 04 00 00 00 04 00 00 00 04 00 00 80 04 00 00 00
       6e-45 6e-45 -6e-45 6e-45
000150 04 00 00 00 04 00 00 00 04 00 00 00 04 00 00 00
       6e-45 6e-45 6e-45 6e-45
000160 04 00 00 00 04 00 00 00 00 00 00 00 00 00 00 00
       6e-45 6e-45 0.0 0.0
000170 04 00 00 00 00 00 00 00 04 00 00 00 00 00 00 00
       6e-45 0.0 6e-45 0.0
000180 00 00 00 00 04 00 00 00 04 00 00 80 04 00 00 00
       0.0 6e-45 -6e-45 6e-45
000190 dc 38 33 27 52 99 87 04 9e 72 95 3d 39 99 35 9e
       2.4872064e-15 3.187915e-36 0.07297252 -9.613746e-21
0001a0 04 00 00 00 04 00 00 80 46 02 be b7 9f 0f d0 3d
       6e-45 -6e-45 -2.2650824e-05 0.101592295
0001b0 71 4d 0b 80 ad 69 51 82 34 4e 00 00 a3 2f c3 37
       -1.037971e-39 -1.5385222e-37 2.8054e-41 2.3267994e-05
0001c0 b9 0a ba be 2a 96 0a ad b9 b1 37 37 71 6a ef 34
       -0.36336306 -7.877735e-12 1.0949029e-05 4.4594665e-07
0001d0 d8 a3 cc 3d 38 f7 be 3e 48 f0 23 2a 65 2b 62 24
       0.09992188 0.37297988 1.4560673e-13 4.9042695e-17
0001e0 60 77 38 9e a6 1b e1 98 43 0e bc 3c a3 2f c3 37
       -9.765565e-21 -5.8189055e-24 0.02295602 2.3267994e-05
0001f0 d3 9a b6 8c 21 2b e1 a6 b0 2d 00 04 dc 3d 1e 38
       -2.8134721e-31 -1.5624201e-15 1.5067306e-36 3.7727747e-05
000200 b0 73 5f 1e 04 00 00 80 04 00 00 00 f0 b0 df 38
       1.1829445e-20 -6e-45 6e-45 0.00010666426
000210 60 74 b5 3d 26 a0 12 80 44 18 a3 82 f5 37 4a 00
       0.088600874 -1.71049e-39 -2.3964625e-37 6.8159e-39
000220 e4 d0 f2 b6 19 ad ec bd 3d 6b 5b 2e dd 05 3c b6
       -7.23648e-06 -0.11556453 4.989008e-11 -2.8017596e-06
000230 91 9a 50 34 fe a5 b5 3d 30 b5 23 3e 2b 49 bc aa
       1.942774e-07 0.08869551 0.15987086 -3.344628e-13
000240 18 88 99 22 67 9b 68 1e 04 31 09 19 00 87 1c b7
       4.161483e-18 1.2314114e-20 7.092633e-24 -9.329757e-06
000250 e4 d0 f2 b6 c3 1b f4 0b f8 25 26 a7 30 31 1c 85
       -7.23648e-06 9.402715e-32 -2.305771e-15 -7.344119e-36
000260 e1 c3 29 bf 31 37 8e 9d 04 00 00 80 04 00 00 80
       -0.6631451 -3.7644154e-21 -6e-45 -6e-45
000270 e7 42 9d ba 9f b3 8c bf ec ea b4 00 73 54 90 82
       -0.0011998088 -1.0992316 1.6614663e-38 -2.120737e-37
000280 2b 13 80 81 75 f2 31 b8 25 e7 31 40 b6 45 a8 af
       -4.704728e-38 -4.2425894e-05 2.779733 -3.0608555e-10
000290 ad 74 f1 b6 0c 96 8a b4 f3 e0 8a bf 81 0e 3d c0
       -7.1959425e-06 -2.5813677e-07 -1.0849899 -2.9540102
0002a0 13 57 cc aa 9f 5f af a4 f3 55 71 9d 3b 95 cd 99
       -3.62981e-13 -7.605614e-17 -3.194052e-21 -2.1256777e-23
0002b0 43 45 54 be 75 f2 31 b8 6a 4c 2e 8b 04 00 00 80
       -0.20729546 -4.2425894e-05 -3.356867e-32 -6e-45
0002c0 04 00 00 00 ec 72 5a 3d 04 00 00 80 04 00 00 00
       6e-45 0.053332254 -6e-45 6e-45
0002d0 04 00 00 00 04 00 00 00 b3 6b a0 3d 65 9b 0a 80
       6e-45 6e-45 0.07833042 -9.741e-40
0002e0 04 00 00 80 04 00 00 00 eb 44 43 37 fb 15 80 be
       -6e-45 6e-45 1.1638952e-05 -0.2501677
0002f0 c3 1d 09 00 04 00 00 00 d5 48 d1 b3 c0 e9 9d 3d
       8.37196e-40 6e-45 -9.745569e-08 0.077106
000300 04 b4 84 3e 4f bf 7e aa 04 00 00 80 04 00 00 00
       0.2591859 -2.2626105e-13 -6e-45 6e-45
000310 20 15 1d 98 2e 1d 89 3c eb 44 43 37 04 00 00 80
       -2.030244e-24 0.016737547 1.1638952e-05 -6e-45
000320 9a 21 17 26 23 98 b9 02 a9 7e 43 38 e5 72 80 1e
       5.243419e-16 2.727063e-37 4.6609584e-05 1.3600046e-20
000330 04 00 00 80 04 00 00 00 62 4e 54 39 bc f2 ce 3d
       -6e-45 6e-45 0.00020247095 0.10104892
000340 f0 8f 14 80 c2 14 0c 03 b7 cd 4f 00 93 53 86 36
       -1.888345e-39 4.116613e-37 7.328801e-39 4.0032405e-06
000350 fa 40 0f be df 75 69 2e 84 b5 3e b4 40 fb 5d 34
       -0.1398963 5.3082757e-11 -1.7761164e-07 2.0673633e-07
000360 74 59 cf 3d 9b 0b 43 3e c7 d9 dd aa 18 c2 a2 23
       0.10124484 0.19047396 -3.94086e-13 1.7646277e-17
000370 ca 4b 81 1e 4e 67 73 99 63 aa d8 b6 93 53 86 36
       1.3689752e-20 -1.2583668e-23 -6.4571373e-06 4.0032405e-06
000380 f9 a4 0b 0c 59 ef 1b 26 40 83 de 03 f3 c1 9c b4
       1.0757815e-31 5.4100804e-16 1.3078121e-36 -2.919838e-07
000390 be e2 78 1c 04 00 00 00 04 00 00 00 81 ab 89 39
       8.2349374e-22 6e-45 6e-45 0.00026258457
0003a0 ff 1b 58 3e a8 e2 24 80 04 00 00 00 03 b8 6d 00
       0.2110443 -3.387387e-39 6e-45 1.007608e-38
0003b0 04 00 00 00 14 31 d5 be 01 62 15 00 04 00 00 00
       6e-45 -0.41639006 1.963703e-39 6e-45
0003c0 ec 4e dc 33 70 60 58 3e 9b a4 05 3f 48 0a 51 2a
       1.0258904e-07 0.21130538 0.52204293 1.8566496e-13
0003d0 04 00 00 00 61 b5 64 1c 43 0e e1 18 bf 93 e1 b5
       6e-45 7.56733e-22 5.8175537e-24 -1.6806806e-06
0003e0 9d 5a 5a 80 cd bc 4e 0b 75 ba 30 a7 e1 be 26 85
       -8.2977e-39 3.9816195e-32 -2.4525985e-15 -7.8403414e-36
0003f0 93 15 35 bf 34 45 97 9d 04 00 00 80 04 00 00 80
       -0.70736045 -4.004092e-21 -6e-45 -6e-45

exp_avg_sq f4 [12, 25]
000000 f4 01 00 00 00 00 00 00 00 00 00 00 00 00 00 00
       7e-43 0.0 0.0 0.0
000010 f4 01 00 00 00 00 00 00 f4 01 00 00 f4 01 00 00
       7e-43 0.0 7e-43 7e-43
000020 00 00 00 00 f4 01 00 00 00 00 00 00 00 00 00 00
       0.0 7e-43 0.0 0.0
000030 00 00 00 00 00 00 00 00 00 00 00 00 00 00 00 00
       0.0 0.0 0.0 0.0
000040 00 00 00 00 f4 01 00 00 f4 01 00 00 f4 01 00 00
       0.0 7e-43 7e-43 7e-43
000050 00 00 00 00 f4 01 00 00 f4 01 00 00 00 00 00 00
       0.0 7e-43 7e-43 0.0
000060 00 00 00 00 bb b8 13 40 ef 02 8e 3e df 0e 05 40
       0.0 2.30815 0.27736613 2.0790327
000070 fc b6 01 40 6b 18 09 3b da 69 96 40 b2 66 f2 3a
       2.0267935 0.0020919095 4.7004213 0.001849374
000080 f4 01 00 00 88 5a 88 3e e8 6d a6 3f d1 6e 92 3f
       7e-43 0.2663157 1.3002291 1.1440068
000090 f4 01 00 00 ac 12 a9 42 0e b2 82 3b 3e 71 95 40
       7e-43 84.53647 0.003988511 4.6700735
0000a0 2e ba 98 37 72 a0 ac 41 67 e3 b3 42 2f 60 7a 3f
       1.8206509e-05 21.578342 89.944145 0.97803015
0000b0 31 17 5a 3f 66 d9 e9 3e f4 01 00 00 62 52 46 41
       0.8519164 0.45673674 7e-43 12.395113
0000c0 f4 e0 aa 3e 73 92 5b 3d cf 27 03 3e b2 2a 35 3e
       0.3337475 0.05360646 0.12808155 0.17692068
0000d0 16 65 7e 43 c6 58 3f 3e e3 3d 04 3d 39 3b 0c 3e
       254.39487 0.18686208 0.032285582 0.13694467
0000e0 8f 31 8a 3e a7 3f 11 44 7e cd 24 40 07 77 fd 3d
       0.26990935 580.99457 2.5750422 0.12376218
0000f0 94 4b d8 3d e3 0a 75 3f 1e 2e 35 46 22 f4 80 40
       0.105612904 0.95719737 11595.529 4.0298014
000100 19 76 0b 3e 4e 37 01 3e 17 70 c8 40 ef 3f 33 46
       0.1361927 0.12618753 6.263683 11471.983
000110 35 ca 35 42 37 8e 39 3e 7b 52 b3 3d 7b 1a e8 3e
       45.447468 0.18120657 0.08755966 0.45332703
000120 7e 8d 26 43 c9 a7 30 42 2a 5a 1c 3e f4 01 00 00
       166.5527 44.163853 0.1526877 7e-43
000130 00 00 00 00 f4 01 00 00 f4 01 00 00 f4 01 00 00
       0.0 7e-43 7e-43 7e-43
000140 f4 01 00 00 f4 01 00 00 f4 01 00 00 f4 01 00 00
       7e-43 7e-43 7e-43 7e-43
000150 f4 01 00 00 f4 01 00 00 f4 01 00 00 f4 01 00 00
       7e-43 7e-43 7e-43 7e-43
000160 f4 01 00 00 f4 01 00 00 00 00 00 00 00 00 00 00
       7e-43 7e-43 0.0 0.0
000170 f4 01 00 00 00 00 00 00 f4 01 00 00 00 00 00 00
       7e-43 0.0 7e-43 0.0
000180 00 00 00 00 f4 01 00 00 f4 01 00 00 f4 01 00 00
       0.0 7e-43 7e-43 7e-43
000190 9d 9a 80 41 53 c0 32 41 43 55 b3 40 f7 80 bb 41
       16.075495 11.171954 5.604158 23.437971
0001a0 e6 aa 96 40 c9 a8 34 40 11 b6 50 3d 51 3c 62 42
       4.7083616 2.8228018 0.050954882 56.558903
0001b0 f0 7d ce 3c b7 1d 85 41 3b 57 73 3f 16 6e 3d 41
       0.025206536 16.63951 0.9505498 11.839376
0001c0 65 ce f0 42 44 4b 9e 3d c1 e5 89 41 46 f3 71 41
       120.403114 0.077291995 17.237185 15.121893
0001d0 12 af eb 42 b9 48 23 43 80 96 80 41 30 a7 c1 41
       117.841934 163.28407 16.073486 24.206635
0001e0 4b ab f9 40 8c 09 45 40 38 0c 49 40 58 cc a9 41
       7.80216 3.0787077 3.1413708 21.224777
0001f0 eb 18 9d 41 ed d6 ee 40 f8 ac 8e 40 65 59 37 40
       19.637167 7.463736 4.4586143 2.8648312
000200 24 8a 25 41 e3 83 f7 3f 61 f6 cc 40 bf 1a 9c 40
       10.346226 1.9337124 6.4050756 4.878265
000210 72 49 a9 41 4c e0 ce 3c 3d 52 d0 40 04 86 b2 3e
       21.160862 0.025253437 6.510039 0.3486787
000220 4d ad 0d 3e a2 ab 88 42 82 e2 1e 3d 18 37 c4 40
       0.1383564 68.33522 0.038790233 6.1317253
000230 df 16 27 3f fb e2 5a 42 a6 7a 41 42 8d 69 d6 40
       0.65269274 54.72166 48.369774 6.7003846
000240 c4 a8 2b 41 fb f7 7d 40 3a 15 d1 3f f4 7a 09 3f
       10.728703 3.9682605 1.6334603 0.53703237
000250 54 7e c2 3f ac d4 f9 40 e9 e2 0e 3e 79 40 4d 3e
       1.5194802 7.807211 0.13953747 0.20044126
000260 a9 d8 92 43 18 d4 47 3e cc 23 19 3d d9 51 18 3e
       293.69266 0.19514501 0.037387654 0.14874972
000270 8f 4d 9f 3e d8 2d 28 44 eb f2 3d 40 ab 3a 0a 3e
       0.3111386 672.7163 2.9679515 0.13498943
000280 dd 4a f2 3d f0 63 8e 3f d0 68 51 46 c3 fb 94 40
       0.11830685 1.1124249 13402.203 4.6557326
000290 9a 74 18 3e 78 9d 0d 3e 60 e9 e4 40 2c 3b 4f 46
       0.1488823 0.13829601 7.153488 13262.793
0002a0 f2 78 51 42 6f a4 54 3e b4 12 b1 3d 5f 99 06 3f
       52.36811 0.20765851 0.086461455 0.52577776
0002b0 09 c1 40 43 60 dd 4c 42 bb 3e 22 3e f4 01 00 00
       192.75404 51.216187 0.15844242 7e-43
0002c0 94 34 c2 3e 4a af bc 3e be 04 44 2e 65 98 0e 40
       0.3793074 0.36852485 4.4569452e-11 2.2280514
0002d0 87 70 2e 3a fb 58 d2 38 dd 8b 22 41 26 92 1e 40
       0.0006654341 0.00010030154 10.159146 2.4776702
0002e0 73 ae 88 1d 6e 8e 1c 22 2f 51 c7 40 bc 6c 5d 42
       3.6179277e-21 2.1217344e-18 6.22866 55.356186
0002f0 9c 21 f0 3c f4 01 00 00 7b 73 bc 3e b7 32 df 41
       0.029312901 7e-43 0.36806855 27.899763
000300 9f d7 7b 42 0e e0 d2 3f 68 59 61 07 da da 52 3a
       62.960567 1.6474626 1.6953393e-34 0.00080434757
000310 55 a2 c7 40 5b d0 76 3f c8 88 02 41 82 7f f6 29
       6.238566 0.96411675 8.158394 1.09467136e-13
000320 99 dd 89 3f a6 50 52 3d 41 b8 42 40 d4 04 a9 40
       1.0770751 0.051346444 3.042496 5.2818394
000330 04 af 13 40 1c 4b 02 40 b2 83 ce 3c 76 3f 05 42
       2.307557 2.0358343 0.025209282 33.311974
000340 5f f8 05 3d 52 67 b9 3e 66 1b 92 3f 24 93 c8 40
       0.03270757 0.3621164 1.1414611 6.2679615
000350 ef 95 b4 42 c8 7b 45 3f 60 c8 31 40 52 ee 06 41
       90.29284 0.77142 2.777855 8.433184
000360 51 3f 56 41 70 e2 95 42 04 4f 00 41 23 d0 25 40
       13.390458 74.94226 8.019291 2.5908287
000370 9b 46 b2 40 42 6b d2 40 2b c3 9a 3f da 91 ee 40
       5.571119 6.575593 1.209081 7.455304
000380 c0 ae b5 40 27 e9 1c 3d ff db 8a 3e 7a 98 10 41
       5.677582 0.03830829 0.2712097 9.037226
000390 fe 77 ab 3d bb 61 ee 3a 6c 92 45 3d e8 d7 6a 3c
       0.08372496 0.0018187085 0.048235342 0.014333703
0003a0 73 32 b6 41 37 e5 0b 3f 74 2b 30 3f 57 66 d0 3c
       22.774633 0.5464663 0.68816304 0.025439424
0003b0 a9 7a fb 3c 18 0b ca 43 07 0e 35 3e 37 b3 11 3d
       0.030698137 404.08667 0.17681132 0.035571303
0003c0 35 30 89 3d e6 4e d2 41 c3 23 ca 43 45 4d 19 40
       0.06698648 26.288525 404.2794 2.3953412
0003d0 d7 7d a6 3f 0b 8f 3f 3d 88 83 8d 3c d1 ad 88 41
       1.3007153 0.046767276 0.017274633 17.084871
0003e0 09 58 11 40 f5 31 c0 3d e5 fb 20 3e 70 d2 68 3e
       2.2709982 0.093845285 0.1572109 0.22736526
0003f0 ca 07 a7 43 7f 5c 5f 3e 22 49 2e 3d ea 7d 2b 3e
       334.06085 0.21812628 0.042550214 0.16747251

exp_avg f4 [12]
000000 04 00 00 00 ca fe 36 3d 72 44 00 c0 04 00 00 00
       6e-45 0.04467658 -2.0041776 6e-45
000010 af a4 51 3e 6a 5c 17 3e cf d2 09 c0 2b 1e 20 3e
       0.20472978 0.14781347 -2.1534917 0.15636508
000020 50 cc 2c 3e 7f 50 b4 3e dc fb 12 c0 04 00 00 80
       0.16874814 0.35217664 -2.2966223 -6e-45

exp_avg_sq f4 [12]
000000 f4 01 00 00 15 30 b7 42 52 bd 6f 41 f4 01 00 00
       7e-43 91.59391 14.983721 7e-43
000010 aa 8e 04 44 3b a5 5e 43 36 d4 87 41 50 c7 dd 42
       530.2291 222.64543 16.978619 110.88928
000020 5c 04 1d 43 15 0e a1 42 73 3a 9a 41 ca e5 d4 3a
       157.01703 80.527504 19.27854 0.0016242799

exp_avg f4 [4, 12]
000000 04 00 00 80 22 4f 2d b7 87 8d d1 bd 04 00 00 00
       -6e-45 -1.0330028e-05 -0.10232072 6e-45
000010 25 54 cf 3c 5f e1 9f bc d7 09 03 be 06 21 f7 3b
       0.025308678 -0.019516645 -0.12796722 0.0075417785
000020 b5 61 a6 bc f6 d9 f3 bb bb 63 08 be 04 00 00 80
       -0.020310262 -0.0074417545 -0.13319294 -6e-45
000030 04 00 00 80 71 85 4a 37 33 42 1b 3e 04 00 00 00
       -6e-45 1.20712075e-05 0.15161972 6e-45
000040 33 58 bd bc 9b 95 a8 3c fa 49 42 3e b2 59 e0 bb
       -0.023113346 0.02057915 0.18973532 -0.00684663
000050 5f 36 b7 3c 34 96 1d 3c 78 d7 49 3e 04 00 00 00
       0.022364793 0.009618331 0.19711101 6e-45
000060 04 00 00 00 2f ed 8a b5 8f ce ca bc 04 00 00 80
       6e-45 -1.0350831e-06 -0.024756698 -6e-45
000070 be 35 86 ba 2b c8 17 ba 15 19 fe bc 67 95 aa b9
       -0.0010239405 -0.000579002 -0.03101782 -0.0003253624
000080 43 be 8c ba b3 3b 90 ba cb 7a 03 bd 04 00 00 80
       -0.0010737855 -0.001100412 -0.032099526 -6e-45
000090 04 00 00 80 99 fd 3c b5 34 07 c9 bc 04 00 00 80
       -6e-45 -7.040449e-07 -0.024539568 -6e-45
0000a0 3b 85 99 ba fe 77 fd b9 19 e1 fb bc 88 da c1 b9
       -0.0011712679 -0.00048345322 -0.030746983 -0.00036974647
0000b0 f1 88 80 ba 47 0a 8d ba 8e 50 02 bd 04 00 00 80
       -0.0009806437 -0.0010760509 -0.031815104 -6e-45

exp_avg_sq f4 [4, 12]
000000 f4 01 00 00 ef cc ba 3d 94 c0 4c 44 f4 01 00 00
       7e-43 0.09121119 819.00903 7e-43
000010 31 0a 4a 3f 06 bd a0 3e 3b de 9f 44 7a e6 90 3d
       0.789218 0.31394213 1278.9447 0.0707521
000020 7e 95 4c 3f d7 62 8f 3f 67 6c ac 44 56 24 ba 34
       0.79915607 1.1202039 1379.3876 3.4671638e-07
000030 f4 01 00 00 32 bf bb 3d 2a b5 4c 44 f4 01 00 00
       7e-43 0.09167327 818.8307 7e-43
000040 c3 bb 47 3f 74 16 a1 3e d5 d4 9f 44 39 64 8f 3d
       0.78020877 0.31462443 1278.651 0.07001538
000050 86 91 4c 3f eb 5b 8f 3f 44 63 ac 44 17 62 ba 34
       0.7990955 1.1199926 1379.102 3.471657e-07
000060 f4 01 00 00 b0 5c 37 36 69 d7 32 3f f4 01 00 00
       7e-43 2.7323076e-06 0.6985994 7e-43
000070 7d 17 40 3b 7b d7 89 38 b5 5a 8c 3f 28 17 8d 39
       0.0029310875 6.5728054e-05 1.0965182 0.00026910868
000080 3f 59 28 3a 13 1b e3 3a 2c 63 96 3f de d4 e1 2a
       0.000642199 0.0017326794 1.1749015 4.0115735e-13
000090 f4 01 00 00 30 38 15 36 6a 89 f0 3f f4 01 00 00
       7e-43 2.2235436e-06 1.8791935 7e-43
0000a0 5f 8d ee 3b c4 ca ca 39 98 de 3c 40 61 b4 39 3a
       0.0072800363 0.00038679515 2.951086 0.00070840685
0000b0 e6 44 0c 3b f2 25 68 3b 03 21 4a 40 bb 0d 48 2a
       0.0021403371 0.0035423008 3.1582649 1.7768332e-13

exp_avg f4 [4]
000000 8c 36 a7 bb fc 26 f7 3b 86 96 a0 ba de 26 9f ba
       -0.005102938 0.007542489 -0.0012251891 -0.0012142321

exp_avg_sq f4 [4]
000000 b8 cd fe 3f 1f bf fe 3f 10 37 e0 3a cb c6 96 3b
       1.990653 1.9902076 0.0017106254 0.0046013347

exp_avg f4 [1, 12]
000000 04 00 00 80 6a 15 c0 bc 14 0b f9 3f 04 00 00 80
       -6e-45 -0.023447711 1.9456506 -6e-45
000010 e0 64 e7 3e 20 38 14 be 9e cd 1b 40 40 86 b9 3d
       0.4519415 -0.14474535 2.4344249 0.09058809
000020 90 ff c8 bd 64 75 2d 3d 6c 6b 21 40 04 00 00 00
       -0.0981437 0.04234828 2.5221815 6e-45

exp_avg_sq f4 [1, 12]
000000 f4 01 00 00 ea d8 ae 3f d1 db 5d 41 f4 01 00 00
       7e-43 1.3659947 13.866166 7e-43
000010 bd 50 39 43 38 61 5f 42 af 0d af 41 77 b6 52 41
       185.31538 55.84494 21.881681 13.169547
000020 1c d4 59 42 d5 4a 7c 40 6c 03 b9 41 fd fd 21 37
       54.457138 3.9420674 23.12667 9.655484e-06
