checkpoint.pth (torch, 11426 bytes, 15 tensors)

fc1.weight f4 [12, 25]
00000000: 2203 383f efef 523f e398 cb3f 7e69 4bbe
00000010: 97f4 3ebf 0fc5 5d3f b81f 0340 8fa6 1240
00000020: 6def 813c 7a4f 41bf 8e58 b93f 9320 2640
00000030: 43fb f93f 7570 d13e 841c 11bf 1a56 df3f
00000040: 7618 2e40 1e63 ec3f 1f98 4c3f 4719 963d
00000050: 2c71 c73f 34ef 2f40 4c87 9f3f a862 c93d
00000060: 3338 04bf 72b5 2bbf 81b6 45bf a228 dbbf
00000070: 83d1 e9be f06b d5be f9c8 67bf 1a1f 08c0
00000080: c314 6fc0 0965 c2be c6aa c5be 48f9 c5bf
00000090: 25f3 6ec0 807c 4ac0 7ede 0fbf 6720 afbe
000000a0: 727b 04c0 ef2e 32c0 486d 18c0 140d 73bf
000000b0: 72b4 33be 1d41 02c0 6661 e8bf 0c4c a5bf
000000c0: 73cf bcbe 8626 fb3e d453 cb3e f84c 5f3f
000000d0: ae20 d63f 8ca3 bebd 60e5 56bf d991 813f
000000e0: 6651 1440 c8ea 0840 4af5 413e 7817 1fbf
000000f0: ab35 b03f 0fd3 1240 311c 0840 bbad 6f3e
00000100: aa83 40bf 6099 db3f 0969 2e40 315d e23f
00000110: 7b63 503f 3ec9 803c e04a d93f 17cb 3940
00000120: 75bf d13f 6da5 c83d 0ded 08bf aaed 1d3f
00000130: 4017 323f b297 da3f d508 1ebe 89b7 bfbe
00000140: db91 843f fdcc 0940 55f8 1140 7c6b f03c
00000150: b7a5 1cbf 53cd ae3f 7659 1240 18b2 1240
00000160: 19cb e63e 7537 3dbf 7cca dd3f 0bbb 2b40
00000170: 767b 0340 445e 323f d41c 083e 9520 f23f
00000180: bfe0 2d40 b333 cd3f 4ba7 9f3e 4ea2 e5be
00000190: a613 2cbf 426c 31bf e68f cebf a537 2ebf
000001a0: 20f5 b0be 811b 6cbf 4ca3 10c0 8ec6 69c0
000001b0: f1ad 39bf 1216 a2be 60b1 d9bf 07c5 69c0
000001c0: ba4a 51c0 c0da 14bf e11d 373f d96d 04c0
000001d0: 19c6 3cc0 163f 1bc0 6a5c 92bf 0624 f5bc
000001e0: 4e04 e8bf 87f1 fcbf 9866 bdbf 9bd9 ecbd
000001f0: 61bf 213f 4007 083f 80c6 503f 0422 e93f
00000200: 8782 71be 8923 d5be 4e7e 813f 48d4 0940
00000210: e2e8 1740 0b23 813e 794b 31bf d041 dd3f
00000220: 5067 1340 4ef7 0140 ff57 cf3e ecd3 6ebf
00000230: 2e5c d73f 9c57 2540 77b5 e43f 73df 843f
00000240: 3989 36be 9964 d43f fc96 2240 df40 c33f
00000250: a223 12bd 4a34 cdbe 788a 723f 28ce 6d3f
00000260: ce89 a83f 626c 183e 2e3c cfbe 22b3 673f
00000270: 2c01 1540 9d1e b53e 9a86 843e c3ef 0dbf
00000280: 741f 1b40 b902 0b40 4a8c 15c0 8f7a f43e
00000290: bbbe d0be 210d 133f 659f 093f ebfb 9dbf
000002a0: 35a8 ea3e 0feb debe 547f ccbe 878a d9bf
000002b0: fa67 8ebf 8ab7 02bf 66fa 2cbf bd61 7e3f
000002c0: 1d50 763f 2d93 0a40 865b 5f3b 15b4 6fbe
000002d0: 2508 813f 9002 1f40 a9e9 a5bd e022 bc3e
000002e0: a40b 30be 593b de3f fef9 2a40 9f16 933f
000002f0: 2b96 353f f745 e2be 238b b13f bd4f 0540
00000300: 5de4 fd3f edd1 553f c447 a6bc caf4 353f
00000310: d6bc 6e3f db9e 123f 2b25 d8bd d752 0abf
00000320: 80a6 5bbf 40ac 68bf 1d7d debf 6b21 e2be
00000330: e9a9 a5be 1448 87bf 31ee 0ec0 22ac 70c0
00000340: 1e27 35bf f59f 283f 3c63 d7bf d06c 60c0
00000350: ff8c 44c0 f84a 31bf c004 0c3f 8615 e3bf
00000360: e565 47c0 a6a6 26c0 9148 5cbf 14b2 a6be
00000370: 0014 f6bf fdfd f7bf 9f91 8ebf 90b4 02be
00000380: 8d6f 363f 6b2a 1c3f 2407 5e3f 969e cd3f
00000390: aa8a 22be 6f82 1abf dfe3 5d3f fbf8 0940
000003a0: dd11 0740 9fb6 e03d b1ae 1dbf 2648 dc3f
000003b0: f7b1 1840 2803 1240 cdcc c03e 6bff 10bf
000003c0: 7c1f b93f 4dd5 2d40 0854 e13f 2801 7f3f
000003d0: b2f8 08be 44b1 fa3f 75a0 2f40 3edd b23f
000003e0: f60c 473e 9f51 afbe a27c 123f 53d5 593f
000003f0: 47d0 eb3f 03f0 0a3e 1389 bbbe 5685 8c3f
0.7187978 0.8239736 1.5906032 -0.19864461 -0.74591964 0.8662881 2.048811 2.291416
0.015861237 -0.75511897 1.448015 2.5957382 1.9529804 0.4090611 -0.56684136 1.7448151
2.720243 1.8467748 0.7991962 0.0732904 1.5581412 2.7489748 1.2463164 0.0983327
-0.51648253 -0.6707374 -0.77231604 -1.7121775 -0.45667657 -0.41683912 -0.90541035 -2.1268983
-3.7356422 -0.3796771 -0.38606852 -1.54667 -3.7335904 -3.1638489 -0.5619887 -0.3420441
-2.0700345 -2.7841146 -2.38167 -0.9494183 -0.17549303 -2.0352242 -1.8154724 -1.2913833
-0.3687702 0.4905283 0.39712393 0.8722682 1.6728723 -0.09308538 -0.8394375 1.0122634
2.3174682 2.13933 0.18941227 -0.62145185 1.3766378 2.294132 2.1267207 0.23406117
-0.75200903 1.7156181 2.7251608 1.768469 0.81401795 0.01572096 1.6975975 2.9030206
1.6386553 0.097971775 -0.5348671 0.6169077 0.69566727 1.7077544 -0.15433057 -0.37444714
1.0357012 2.1531365 2.280782 0.029348128 -0.6119036 1.365641 2.2867103 2.29212
0.45076826 -0.73912746 1.7327418 2.6832912 2.0544105 0.6967509 0.13292247 1.8916193
2.7168424 1.6031402 0.31182322 -0.4485039 -0.6721748 -0.69305813 -1.6137664 -0.68053657
-0.34562016 -0.9222947 -2.2599669 -3.6527438 -0.7253104 -0.31657463 -1.7007256 -3.6526506
-3.270186 -0.58146286 0.71529967 -2.0692046 -2.949591 -2.4257255 -1.1434453 -0.029924404
-1.8126314 -1.9761208 -1.4796934 -0.115649424 0.63182646 0.5313606 0.81552887 1.8213506
-0.23584948 -0.41628674 1.011667 2.1535816 2.373589 0.25222048 -0.6925579 1.7285709
2.3031807 2.0307193 0.40496823 -0.9329212 1.6825006 2.5834723 1.7867879 1.0380691
-0.17825784 1.65932 2.5404654 1.5254172 -0.035678513 -0.40078956 0.94742537 0.92892694
1.3167055 0.14885095 -0.404756 0.9050771 2.3281965 0.3537492 0.25883943 -0.5544397
2.4237947 2.1720412 -2.3366876 0.47749755 -0.40770516 0.5744191 0.5375884 -1.2342504
0.45831457 -0.4353871 -0.39940894 -1.69954 -1.1125481 -0.5106131 -0.6756958 0.99367887
0.96215993 2.165233 0.0034081652 -0.2340854 1.008061 2.4845314 -0.08101208 0.36745358
-0.1719194 1.7361861 2.6715083 1.1491278 0.70932263 -0.44194004 1.3870586 2.0829918
1.9835316 0.83523446 -0.020297892 0.71076643 0.9325689 0.57273644 -0.10553964 -0.54032654
-0.85800934 -0.9088783 -1.7381932 -0.4416612 -0.32356194 -1.0568871 -2.233288 -3.7605062
-0.70762813 0.65869075 -1.6827159 -3.5066414 -3.0711057 -0.6925502 0.5469475 -1.7740943
-3.1155941 -2.6039214 -0.8604823 -0.32557738 -1.9224854 -1.9374386 -1.113819 -0.12764192
0.71263963 0.61002225 0.86729646 1.6064022 -0.15873209 -0.60355276 0.8667583 2.1558216
2.1104653 0.10972332 -0.6159468 1.7209518 2.385862 2.2814426 0.3765625 -0.56639737
1.4462733 2.7161438 1.7603769 0.9961114 -0.1337612 1.9585347 2.7441685 1.3973768
0.19438538 -0.3424196 0.57221425 0.8509113 1.8422936 0.1356812 -0.36628017 1.0978191

fc1.bias f4 [12]
00000000: 1cac 9e40 fba4 3240 24b3 6040 0b34 2a40
00000010: 1b62 3740 3a15 ae40 bddf 21be de87 b83e
00000020: 4704 3b40 516a 2d40 9d2e 4140 248a a540
4.9585094 2.7913196 3.5109339 2.6594265 2.865363 5.440091 -0.15808006 0.36041158
2.922136 2.709614 3.01847 5.173113

actor.weight f4 [4, 12]
00000000: 6a09 a8bd 823a babf 506c 873e 4642 d83d
00000010: 591c cebf 9c10 823c 8e54 44c0 b711 18c0
00000020: 71f7 15bf 2374 a93e 2e19 b4be 5897 733d
00000030: 7925 1f3e 3274 73bf ddfa 5bbe 2627 f1be
00000040: 8afd cfbe f726 85be fc9e 8f40 ec28 2c3f
00000050: 119a 3bbe 9619 8fbe 6e4d 0c3e 9c6b 223e
00000060: fbdc 0fbe f274 a33e ad7d 55be 83f2 b43e
00000070: 2980 b43e de51 8abe 37c5 61c0 e8b2 8e3f
00000080: 313e efbd e63e 34be c86e bf3e 4257 00be
00000090: adfa d53d 3ae0 9a3f 1ec1 dabd fd47 6dbe
000000a0: 43a8 c93f 6ae2 383e da7e d1bd 14b9 54bf
000000b0: a916 983f 9149 08bf 9f81 47be 1dc5 3bbe
-0.082049206 -1.4549105 0.26449823 0.10559516 -1.6102401 0.01587706 -3.0676608 -2.3760812
-0.5858069 0.33096418 -0.3517546 0.059470505 0.15541638 -0.95099175 -0.21482415 -0.4710018
-0.40623122 -0.2600629 4.4881573 0.6724994 -0.1832049 -0.27949208 0.13701412 0.15861362
-0.14049141 0.3192516 -0.20848723 0.35341272 0.35254028 -0.27015585 -3.527662 1.1148348
-0.11681784 -0.17602119 0.37389207 -0.12533286 0.10448203 1.2099679 -0.106813654 -0.23171993
1.5754474 0.1805512 -0.10229273 -0.83094907 1.1881915 -0.53237253 -0.1948304 -0.18336911

actor.bias f4 [4]
00000000: 333e 153f ce29 643e 0f85 5ebf f11f 8e3b
0.58298033 0.22281572 -0.8692178 0.004337304

critic.weight f4 [1, 12]
00000000: 550f 8840 2535 eec0 155d 8840 a1a9 9040
00000010: 3417 f3c0 b69b 8f40 26a8 df3f a660 2d40
00000020: 645f f4c0 9d17 8c40 ef20 8640 4158 8440
4.2518716 -7.4439874 4.2613626 4.5207067 -7.5965824 4.4877577 1.747319 2.709024
-7.6366444 4.3778825 4.19152 4.135773

exp_avg f4 [12, 25]
00000000: 0400 0080 9343 a497 1286 c2b8 0400 0000
00000010: c4b8 9a38 0400 0000 f740 413e e000 953f
00000020: 0400 0080 0400 0000 fb9e 07bc cca2 c4c1
00000030: 17a1 ac3f 0400 0000 0400 0000 d01d 0b3c
00000040: 52d5 dfc1 83dc c339 7674 1ab8 2b69 1638
00000050: 0602 0eb5 88d6 a9b9 a20c c127 f1f6 bf09
00000060: 0400 0000 0400 0000 2b8f 0018 6cee 2b39
00000070: 0400 0000 ce47 3036 0400 0080 6502 c935
00000080: 870c 3f41 0400 0000 0400 0000 759f 6c3c
00000090: 8df5 2e42 72b1 8c40 0400 0000 0400 0000
000000a0: f201 9738 3716 8742 c234 29ba 9e2c 8738
000000b0: 5b7e 83b8 3d66 9137 9845 163a 0400 0080
000000c0: 2ba2 c90b 0400 0080 0400 0080 f117 a297
000000d0: eae9 c1b8 0400 0000 455d 9938 0400 0000
000000e0: 76af 413e 4fef b23f 0400 0080 0400 0000
000000f0: e69b 06bc fac0 c4c1 ea0e be3f 0400 0000
00000100: 0400 0000 1e8a 083c 0877 ddc1 58ce c439
00000110: 0bcd 1ab8 a5b7 1638 761e a1b4 2c51 abb9
00000120: 7c12 c127 0012 bb09 0400 0000 0400 0080
00000130: cf3d ac97 741c cbb8 0400 0000 2f27 b738
00000140: 0400 0000 2179 4d3e 250a 9c3f 0400 0080
00000150: 0400 0000 de83 0ebc 3787 d0c1 9e39 a03f
00000160: 0400 0000 0400 0000 d04e 0f3c 97c6 eec1
00000170: 034b d439 1239 24b8 a8be 1f38 91f0 9635
00000180: 69cf b4b9 7bd3 cb27 480c b809 0400 0000
00000190: 0400 0000 304a 0218 a08d 2e39 0400 0000
000001a0: 32bf 73b6 0400 0080 2c04 cd35 19c0 3c3a
000001b0: 0400 0000 0400 0000 9125 703c dc5f 0d3d
000001c0: 6eba 9040 0400 0000 0400 0080 d2a7 72bc
000001d0: 9d0d 32c2 7275 2dba 1ef2 8938 0d28 86b8
000001e0: c5dd 8e37 5cb7 193a 0400 0080 edb7 d40b
000001f0: 0400 0080 0400 0080 9329 b097 6d1a ccb8
00000200: 0400 0000 ebbf a338 0400 0000 aff9 4b3e
00000210: ece0 af3f 0400 0080 0400 0000 1f0b 0ebc
00000220: aa48 cfc1 b683 be3f 0400 0000 0400 0000
00000230: 5db7 103c 2684 eac1 9175 cf39 e805 23b8
00000240: 9bcb 1e38 5850 82b5 87e6 b3b9 ab54 cb27
00000250: 0c54 c509 0400 0000 0400 0080 3830 fa96
00000260: e10d 56b8 0400 0080 555a 932a 0400 0000
00000270: c0d4 9e3d e247 51c0 0400 0080 0400 0000
00000280: 0037 8ebb 2d6f 2ac1 b3ac a826 0400 0080
00000290: 0400 0000 e1a5 bc3b 61ac 68c1 dc9a ef26
000002a0: daca 29a9 0400 0000 57c5 b636 0400 0000
000002b0: 7bef 3227 1426 f80a 0400 0000 0400 0080
000002c0: 8ae8 4c97 d4a8 75b8 0400 0000 6e11 9b38
000002d0: 0400 0000 a541 f63d f2b5 60bf 0400 0080
000002e0: 0400 0000 5067 b7bb 0369 7cc1 4e9c f1be
000002f0: 0400 0000 0400 0000 dce0 c13b b0f9 a3c1
00000300: 18d9 8239 3cd2 c4b7 d3c8 be37 edb8 8d36
00000310: 5f09 4bb9 26f7 7427 1a1f 5e09 0400 0000
00000320: 0400 0000 fcdc 0818 c13e 2e39 0400 0000
00000330: e0cb a1b7 0400 0080 59f1 cd35 41a0 223a
00000340: 0400 0000 0400 0080 f578 723c 2a60 3342
00000350: 0474 9740 0400 0000 0400 0080 d9c1 75bc
00000360: cbf8 3442 e95f 30ba 8cac 8a38 59db 86b8
00000370: 594c 8c37 4a2c 193a 0400 0080 2d0a d60b
00000380: 0400 0080 0400 0080 0f2c a197 8319 c7b8
00000390: 0400 0000 feee 9e38 0400 0000 40fb 463e
000003a0: 5ae0 b93f 0400 0080 0400 0000 cc30 0abc
000003b0: 7f14 cac1 1453 c33f 0400 0000 0400 0000
000003c0: 1f94 0b3c e657 e3c1 1a77 ca39 9708 1fb8
000003d0: 86bd 1a38 20d3 2035 792f b0b9 773f c627
000003e0: 8b6c be09 0400 0000 0400 0080 9d50 9f97
000003f0: ed46 beb8 0400 0000 ae16 aa38 0400 0000
-6e-45 -1.061531e-24 -9.2756134e-05 6e-45 7.3777075e-05 6e-45 0.18872438 1.1640892
-6e-45 6e-45 -0.00827765 -24.57949 1.3486661 6e-45 6e-45 0.008490995
-27.97916 0.00037357592 -3.6824924e-05 3.5860732e-05 -5.2902067e-07 -0.0003239403 5.3581957e-15 4.62138e-33
6e-45 6e-45 1.6615894e-24 0.0001639665 6e-45 2.626784e-06 -6e-45 1.4976364e-06
11.940558 6e-45 6e-45 0.014442314 43.739796 4.396661 6e-45 6e-45
7.2006034e-05 67.54339 -0.00064547 6.445612e-05 -6.270102e-05 1.7332955e-05 0.0005732416 -6e-45
7.7666387e-32 -6e-45 -6e-45 -1.0475048e-24 -9.246527e-05 6e-45 7.312981e-05 6e-45
0.1891459 1.3979281 -6e-45 6e-45 -0.00821588 -24.594227 1.4848301 6e-45
6e-45 0.008333711 -27.68312 0.0003753777 -3.6907422e-05 3.593382e-05 -3.001075e-07 -0.0003267614
5.35883e-15 4.503554e-33 6e-45 -6e-45 -1.1130842e-24 -9.685094e-05 6e-45 8.7334185e-05
6e-45 0.20065738 1.2190596 -6e-45 6e-45 -0.008698432 -26.066023 1.2517583
6e-45 6e-45 0.008746818 -29.846968 0.0004049168 -3.9153798e-05 3.8086117e-05 1.1245885e-06
-0.00034486808 5.6573106e-15 4.4307938e-33 6e-45 6e-45 1.6839561e-24 0.00016646693 6e-45
-3.6321112e-06 -6e-45 1.5274904e-06 0.00072002556 6e-45 6e-45 0.014657394 0.034515247
4.5227575 6e-45 -6e-45 -0.014810519 -44.513294 -0.0006616927 6.577767e-05 -6.397078e-05
1.7030989e-05 0.00058638095 -6e-45 8.193617e-32 -6e-45 -6e-45 -1.1384228e-24 -9.7324e-05
6e-45 7.808193e-05 6e-45 0.19919465 1.3740516 -6e-45 6e-45 -0.008669644
-25.91048 1.4883945 6e-45 6e-45 0.00883278 -29.314526 0.0003956971 -3.886773e-05
3.7859758e-05 -9.709138e-07 -0.00034313297 5.6435616e-15 4.7505062e-33 6e-45 -6e-45 -4.0420109e-25
-5.10345e-05 -6e-45 2.6175126e-13 6e-45 0.077554226 -3.2700124 -6e-45 6e-45
-0.0043400526 -10.652143 1.1704152e-15 -6e-45 6e-45 0.005757079 -14.542085 1.6625931e-15
-3.7701484e-14 6e-45 5.446996e-06 6e-45 2.4832285e-15 2.3895855e-32 6e-45 -6e-45
-6.620946e-25 -5.8569785e-05 6e-45 7.3942225e-05 6e-45 0.120242395 -0.87777627 -6e-45
6e-45 -0.0055970326 -15.775638 -0.47189564 6e-45 6e-45 0.005916698 -20.496918
0.0002495728 -2.3462919e-05 2.2743281e-05 4.2236557e-06 -0.0001936308 3.3995782e-15 2.6736902e-33 6e-45
6e-45 1.7689157e-24 0.00016617311 6e-45 -1.9287632e-05 -6e-45 1.5343932e-06 0.0006203689
6e-45 -6e-45 0.014799346 44.84391 4.732912 6e-45 -6e-45 -0.01499983
45.24296 -0.0006728159 6.612492e-05 -6.4304746e-05 1.6724853e-05 0.00058430864 -6e-45 8.244511e-32
-6e-45 -6e-45 -1.0415503e-24 -9.4938114e-05 6e-45 7.578543e-05 6e-45 0.19431782
1.4521592 -6e-45 6e-45 -0.008434486 -25.260008 1.5259728 6e-45 6e-45
0.008519202 -28.41792 0.0003861718 -3.7916554e-05 3.689297e-05 5.991187e-07 -0.00033604706 5.502485e-15
4.584291e-33 6e-45 -6e-45 -1.0295484e-24 -9.073117e-05 6e-45 8.110456e-05 6e-45

exp_avg_sq f4 [12, 25]
00000000: 9274 dc3d 405f cc40 0ea2 c342 78bd 053c
00000010: 8e8c 2e3d 9227 6640 b989 d541 a700 6a43
00000020: c3c2 e340 da73 493b bbac 4042 902c 2045
00000030: 34c6 3643 222e 383e 5370 483d dd89 e942
00000040: 74dc 3245 a8ed e743 88bb 4143 e2fd d841
00000050: 0269 3442 5e05 2342 8f71 b840 5972 ab3e
00000060: 26d4 803d 5952 4242 65b3 a643 4c5a 9e43
00000070: 63e4 e542 1509 ac43 40f4 2a41 ac65 5742
00000080: 2205 8f44 5514 3843 4c15 0a42 6b3c a842
00000090: 422b e144 cc37 5843 ad74 ac41 63a2 5f42
000000a0: fae5 d942 3b54 f645 01f3 a544 2d92 5944
000000b0: ed7f 0543 21d8 4643 56ef 7143 7a88 4640
000000c0: 0b50 6643 46c7 743e 78fc d53d 8199 ca40
000000d0: 6807 be42 0a54 043c 765a 263d ae7e 5a40
000000e0: 34b0 d641 d2bb 6c43 173f ea40 33f1 123b
000000f0: e3ad 3d42 dbbf 2045 5aa4 3b43 b65c 383e
00000100: db6e 453d b84f ea42 42e5 3345 553f e943
00000110: a3e0 4043 fded d941 71b5 3a42 1e16 2442
00000120: b3a0 b740 11d1 a93e f3f1 5f3d e102 e93d
00000130: a67d e140 a334 d342 bd59 103c f0f5 e83d
00000140: 4155 5940 2060 f141 a255 7c43 6b07 0e41
00000150: 7192 ba3a ef7c 4c42 e1b2 3445 db1f 5043
00000160: 3e1d 4c3e 2414 573d 628d 0343 6c22 4b45
00000170: 8831 0444 0335 5043 c533 f541 ff2b 4f42
00000180: 94d3 3b42 eb79 dc40 449f bb3e 7562 773d
00000190: 6164 4a42 9393 ad43 1fe0 a143 1174 ef42
000001a0: 0e28 b343 0eeb 2a41 bbef 7242 a980 5144
000001b0: 4c50 4043 59d4 0f42 e0f6 ae42 cbff 0445
000001c0: 70be 6243 0ea1 b341 af42 1c3e 6983 5243
000001d0: e016 fe45 7f33 ad44 caf5 6044 8500 0b43
000001e0: 9851 5543 d244 7c43 ec11 ba3f 8827 7043
000001f0: 5b5e 5c3e 2603 ee3d 3a78 ef40 e274 d442
00000200: 0477 133c 72f1 3e3d 2c85 7440 c6f5 ed41
00000210: 5f0e 8243 1baf ff40 49ea 263b 26f7 5242
00000220: ea49 3245 d04a 4e43 fe14 4e3e 99ed 5c3d
00000230: 2b25 0243 156c 4745 43e9 0144 1783 5a43
00000240: efae f141 4fe1 4c42 b2fa 3542 b162 cc40
00000250: d98d bc3e dbe5 833d b1c0 8f3d 0d4b a23f
00000260: 306f 3d42 674e 9f3d 945d b641 d1f3 ee3d
00000270: 9144 9a40 557c 8f43 cc30 8b3e cec5 3140
00000280: 843a 3e41 ac49 e243 eee6 d13d 5f90 553c
00000290: ac64 7c40 510d 7841 6fab 4f44 b06c bb41
000002a0: 4055 293e 9378 8b40 1ee5 ec41 95ea 2d3f
000002b0: 8be7 9240 8247 8b41 7f52 6841 fef9 4e3d
000002c0: c640 0140 90b8 3c42 bc57 5f3b 6167 263e
000002d0: 6973 ab3f 39a2 2c41 c9bc d042 a849 6440
000002e0: 77a2 493a 4837 9641 2e30 8244 50ea 7a42
000002f0: 9431 8a3d 8807 ab3c acee 3c42 6b5a 9544
00000300: 8455 3c43 1462 7b42 ca29 3041 62db 7d41
00000310: 0ca0 9141 f176 6b40 494f 093e 0477 4d3d
00000320: 2b86 4c42 e800 b043 e06a a543 9aff f142
00000330: bd10 b543 18aa 3441 3d58 6242 31c7 4244
00000340: 04f6 4243 c286 fb3b 1c7f b142 48a6 2045
00000350: 9c5f 6a43 fd86 b541 06ba 1a3e 7f68 5643
00000360: 48f3 ff45 9d77 b044 600e 6344 7178 0c43
00000370: 2e56 5743 5184 7e43 d8fe 5040 f0b7 7243
00000380: 7e3b 3e3e eb4a e13d f701 c740 4495 c742
00000390: 2086 0a3c d764 393d 3617 6240 bfa6 e241
000003a0: 5a9d 7943 6ccd fd40 d5d0 0d3b abcc 4642
000003b0: d3a3 2945 3291 4643 805a 403e 3a2a 4e3d
000003c0: 0fc4 f642 0501 3e45 4c39 f543 e5ab 4543
000003d0: b2fb e541 16ca 4542 9b88 2d42 9914 c240
000003e0: bc8d b23e 143b 653d 6116 d43d 00f2 ba40
000003f0: 4ce1 be42 6bd7 fd3b 7a19 8f3d beca 4d40
0.107644215 6.386627 97.81651 0.008162849 0.042614512 3.5961652 26.692247 234.00255
7.1175246 0.003073922 48.168682 2562.7852 182.77423 0.17986348 0.048935246 116.769264
2861.7783 463.8567 193.73254 27.123966 45.102547 40.75524 5.763862 0.33485678
0.06290464 48.580418 333.40152 316.70544 114.94607 344.07095 10.684631 53.84929
1144.1604 184.07942 34.520798 84.118004 1801.3518 216.21796 21.55697 55.90858
108.94917 7882.529 1327.5939 870.284 133.49971 198.84425 241.9349 3.1020799
230.31267 0.23904142 0.10448545 6.3312383 95.014465 0.008076677 0.040613614 3.413982
26.836037 236.73367 7.3202014 0.0022421598 47.41981 2571.991 187.642 0.18004116
0.048201423 117.1557 2878.3286 466.49478 192.87749 27.241205 46.67719 41.0216
5.7383666 0.33167318 0.0546741 0.11377502 7.046588 105.602806 0.008810458 0.11375034
3.3958285 30.171936 252.3345 8.876811 0.0014234317 51.122005 2891.18 208.12444
0.1993303 0.052509442 131.55228 3250.1514 528.7739 208.20708 30.650278 51.792965
46.95662 6.8898826 0.36644948 0.06039663 50.598026 347.15292 323.75095 119.72669
358.31293 10.682386 60.73411 838.0103 192.31366 35.95737 87.48218 2127.987
226.7439 22.45364 0.15259813 210.51332 8130.8594 1385.6093 899.84045 139.00203
213.31873 252.26883 1.4536719 240.15442 0.21520369 0.11621694 7.483426 106.22829
0.0090005435 0.04661698 3.8206282 29.745007 260.11227 7.990125 0.0025469235 52.741356
2852.6196 206.29224 0.20125195 0.05393753 130.14519 3190.7551 519.6447 218.51207
30.210417 51.220028 45.49482 6.3870473 0.3682697 0.06440326 0.07019175 1.2679154
47.35858 0.07778626 22.795692 0.11667598 4.82087 286.97134 0.27185667 2.777698
11.889286 452.57556 0.102491245 0.013034909 3.9436445 15.503251 830.67865 23.42807
0.16536427 4.3584685 29.611874 0.6793607 4.5907645 17.409916 14.520141 0.05053138
2.0195785 47.180237 0.0034079393 0.16250373 1.3394595 10.789605 104.36872 3.5669956
0.00076917507 18.776993 1041.5056 62.72882 0.067477375 0.020877615 47.233078 1194.8256
188.33405 62.84578 11.010202 15.86606 18.203148 3.6791346 0.13409151 0.05016233
51.131023 352.00708 330.83496 120.99922 362.13077 11.291527 56.58617 779.11237
194.961 0.0076759765 88.74826 2570.3926 234.37347 22.690912 0.15110025 214.40819
8190.41 1411.7379 908.2246 140.47047 215.33664 254.51686 3.2655544 242.7185
0.18577382 0.110006176 6.21899 99.791534 0.008454829 0.045262184 3.5326667 28.331419
249.61465 7.931326 0.0021639366 49.69987 2714.239 198.56717 0.18784523 0.05033324
123.38293 3040.0637 490.44763 197.67146 28.747898 49.44735 43.383404 6.0650144
0.3487376 0.055964544 0.10355831 5.842041 95.44003 0.007746627 0.06987281 3.2154994

exp_avg f4 [12]
00000000: a6d2 b8bf 3e50 c841 0e0c 61bf e24c d6bf
00000010: f390 23c3 b229 96bf 2ef9 b7c0 870f a4c0
00000020: 9c1a 67c1 6970 5fbf c4d9 11c0 ed4f a1bf
-1.4439285 25.03918 -0.8790902 -1.6742213 -163.56621 -1.1731474 -5.7491674 -5.1268954
-14.443996 -0.872809 -2.2789164 -1.2602516

exp_avg_sq f4 [12]
00000000: 2b80 cb40 9f49 4447 eb91 f040 d048 5841
00000010: 70e0 3d47 d3c8 f240 975a 0145 c3a9 e842
00000020: 92e5 2d47 2315 0d41 473d 1f41 e550 b840
6.3593955 50249.62 7.5178123 13.5177765 48608.438 7.5870147 2069.6619 116.331566
44517.57 8.81766 9.95246 5.759875

exp_avg f4 [4, 12]
00000000: c547 2041 91f4 423d 57f0 0341 44e5 e940
00000010: 078a 013d 1dcc 2841 5b51 b23d c9ba 2240
00000020: 999c 143d cc18 ea40 628a ee40 4d7f 2341
00000030: 5ce1 f2bf 9f95 4d3d 0e94 c0bf 8cee a6bf
00000040: 029f 093d dc14 fdbf 8c95 7ebe f0bc f8be
00000050: 0d29 1e3d 0e67 a7bf d066 afbf 62c6 f2bf
00000060: 2d68 06c1 c6cb ccbd d7cf dec0 3538 c6c0
00000070: 829b 88bd ebec 0dc1 2498 193e d04b 07c0
00000080: 8be0 9cbd a252 c6c0 7e07 c9c0 29b9 09c1
00000090: ad92 8f3e 98d5 103b b485 623e a8d2 413e
000000a0: dfbe c13a 1e6d 983e 254d 3d3c ef29 6a3d
000000b0: d96d df3a 5173 423e 6cda 4a3e 2955 923e
10.017522 0.047596518 8.246177 7.3092365 0.031625774 10.549832 0.087069236 2.5426505
0.036282156 7.315527 7.4543924 10.218579 -1.8975024 0.050191518 -1.5045183 -1.3041549
0.033598907 -1.9771991 -0.24861735 -0.48581648 0.038613368 -1.3078325 -1.3703251 -1.8966792
-8.400434 -0.09999804 -6.962871 -6.194361 -0.06670286 -8.870341 0.14999443 -2.1140022
-0.07660016 -6.197587 -6.2821646 -8.607705 0.28041592 0.0022099968 0.22121316 0.18928015
0.0014781615 0.2977075 0.011554037 0.057168897 0.0017046287 0.18989302 0.19809884 0.28580597

exp_avg_sq f4 [4, 12]
00000000: 10ed 1344 f874 6f3d 4ad7 c243 3d9a 9743
00000010: 3588 ad3d c75a 2644 06d9 1d3f a350 c941
00000020: 0a39 813d 3b04 9643 e448 9d43 25e6 1644
00000030: e9be 3444 774a c03f 3184 ee43 dcf2 b443
00000040: f059 c03f d93e 4b44 5f81 9e3f a52d 4b42
00000050: b570 b63f cf1d b543 ca74 c243 510c 3c44
00000060: 12e9 6344 3f14 8440 d8be 1844 a9f2 e943
00000070: 1aea 8140 c311 7f44 17bf 253f fe5a 8642
00000080: 7e80 9240 b29b ea43 655c f943 78bd 6d44
00000090: 1ee5 1643 9036 7e40 a13f b842 5d6c 8042
000000a0: c490 7f40 fc0e 2d43 5d83 5d3e f1e6 ed40
000000b0: adea 8b40 22e9 8342 b7a9 9242 7376 1e43
591.7041 0.05846116 389.68195 303.205 0.08473245 665.4184 0.61659276 25.164373
0.063097075 300.03305 314.56946 603.596 722.983 1.5022725 477.03275 361.89734
1.5027447 812.982 1.2383231 50.794575 1.4253145 362.23288 388.9124 752.19244
911.6417 4.1274714 610.98193 467.89578 4.059827 1020.2775 0.64744705 67.17772
4.578185 469.21637 498.72183 950.96045 150.89499 3.9720802 92.124275 64.21165
3.9932108 173.05853 0.21632142 7.434441 4.372397 65.95534 73.331474 158.46269

exp_avg f4 [4]
00000000: 2c0c 9b3f 5e92 72be a2c5 81bf 3378 213d
1.211309 -0.23688647 -1.0138438 0.03942127

exp_avg_sq f4 [4]
00000000: b89c 1841 9b90 4541 bb9b 6f41 8621 5f40
9.538261 12.347804 14.97552 3.486421

exp_avg f4 [1, 12]
00000000: 1e18 05c2 609c 3642 8c5b f8c1 61d1 f2c1
00000010: 3f72 3942 4261 f6c1 284b 85c1 3099 e6c1
00000020: 83e8 3942 82ad f9c1 104a f8c1 a2cd 04c2
-33.273552 45.65271 -31.0447 -30.352236 46.36157 -30.79749 -16.661697 -28.824799
46.477062 -31.20972 -31.036163 -33.200813

exp_avg_sq f4 [1, 12]
00000000: 1027 8745 3540 9645 fc73 7045 b7f8 6d45
00000010: 841d 9b45 0918 6d45 9239 7044 8d5b 4645
00000020: 3fd7 9d45 97e4 7445 4cff 7045 7e3a 8645
4324.883 4808.026 3847.249 3807.5447 4963.6895 3793.5022 960.89954 3173.722
5050.906 3918.2869 3855.956 4295.3115
