checkpoint.pth (torch, 11426 bytes, 15 tensors)

fc1.weight f4 [12, 25]
0	0xbdad2b51	-0.084555276
1	0xbe362a20	-0.17789507
2	0xbf229432	-0.6350738
3	0xbf95ee2f	-1.1713313
4	0xbfd68aa6	-1.6761062
5	0xbc275dec	-0.010215264
6	0x3df78de1	0.12087608
7	0x4090a483	4.520082
8	0xbf883626	-1.0641525
9	0xbfb93796	-1.4470088
10	0xbc5e4c98	-0.013568066
11	0x3f63d600	0.88998413
12	0x406bc8ff	3.6841428
13	0x3d722406	0.059116386
14	0xbf7d7e31	-0.9902068
15	0x3b447410	0.0029976405
16	0x3f4e5ac0	0.80607224
17	0x3f379ea6	0.71726453
18	0x3cfab5fc	0.030604355
19	0xbf59385b	-0.84851617
20	0xba89bb54	-0.0010508099
21	0xbbb346a9	-0.00547107
22	0x3c40d06d	0.011768443
23	0xbc1e202c	-0.009651225
24	0xbfb75186	-1.4321754
25	0xc09c030c	-4.875372
26	0xc09b752c	-4.858053
27	0xc0a6598b	-5.1984305
28	0xc09e6708	-4.950077
29	0xc0a4f29c	-5.1546154
30	0xc09eea22	-4.9660807
31	0xc09a3bf5	-4.819819
32	0xc0d29c69	-6.581593
33	0xc09883a1	-4.766068
34	0xc0a803f8	-5.2504845
35	0xc09af5d6	-4.8425093
36	0xc085bccb	-4.179296
37	0xc0a34d4b	-5.103185
38	0xc09e1a6c	-4.9407253
39	0xc0a73771	-5.2255177
40	0xc09dcb10	-4.931038
41	0xc08d7ce8	-4.4214973
42	0xc0962c0e	-4.692878
43	0xc0a11661	-5.033982
44	0xc0a4f15b	-5.1544623
45	0xc09dfc3c	-4.9370403
46	0xc0912ec2	-4.5369577
47	0xc0a40ca7	-5.1265445
48	0xc0a8c697	-5.274242
49	0xc0acdde9	-5.4020886
50	0xbf05d173	-0.5227272
51	0xbee76761	-0.4519606
52	0xbf0b3cf1	-0.54389864
53	0xbfcd067a	-1.6017601
54	0xc010cb6f	-2.2624166
55	0x3e4fc0be	0.20288369
56	0x3fa01ddf	1.2509116
57	0x3fb7667c	1.4328151
58	0x3ec39597	0.38200065
59	0xc003b41c	-2.057868
60	0x3e66cf9d	0.22540136
61	0x3fd93071	1.6967908
62	0x3f95f978	1.1716757
63	0xbfa34372	-1.2754958
64	0xc0081da6	-2.1268096
65	0x3eef70c7	0.4676573
66	0x401c41a4	2.4415064
67	0x3f9207a6	1.1408584
68	0xbf913818	-1.1345243
69	0xbfd2862a	-1.6447194
70	0x3ee78348	0.45217347
71	0x3f3cb4b4	0.7371323
72	0x3e549672	0.20760515
73	0xbfacb19d	-1.3491703
74	0xbff37774	-1.9020829
75	0x3f0e7dad	0.55660516
76	0x3f6535ed	0.8953541
77	0x3f72dd00	0.9486847
78	0xbeec1df3	-0.461166
79	0xbf9d13a9	-1.2271625
80	0x3f43155a	0.76204455
81	0x3fb75728	1.4323473
82	0x3fadfe4a	1.3593228
83	0x3ec60199	0.38673094
84	0xbfa7cedf	-1.3110007
85	0x3f4c5536	0.7981752
86	0x4019f1ef	2.4053915
87	0x3f6b19b0	0.9183607
88	0x3e823585	0.25431457
89	0xbf8e5d59	-1.1122237
90	0x3f47414b	0.77834004
91	0x3fc112ac	1.5083823
92	0x40036f87	2.053682
93	0xbecb552d	-0.3971342
94	0xbf84ca8b	-1.0374311
95	0x3f478c8d	0.7794884
96	0x3f56b41d	0.8386858
97	0x3eccb611	0.39982656
98	0xbf2ca53d	-0.67439634
99	0xbfb1dfe7	-1.3896455
100	0xc088a802	-4.270509
101	0xc08864bc	-4.2622967
102	0xc08ab6d9	-4.3348203
103	0xc0908cbb	-4.517179
104	0xc08d5f6c	-4.417898
105	0xc087d46f	-4.244682
106	0xc08b790e	-4.358527
107	0xc0ce697a	-6.4503756
108	0xc088c2e8	-4.2737923
109	0xc09298fa	-4.581174
110	0xc088c2fc	-4.273802
111	0xc0920415	-4.5629983
112	0xc08eb47e	-4.4595327
113	0xc090089a	-4.50105
114	0xc08cb4f1	-4.3970876
115	0xc09c2c94	-4.8804417
116	0xc09ca2be	-4.894866
117	0xc08bcc1e	-4.3686666
118	0xc0915c72	-4.542535
119	0xc08aaef1	-4.333855
120	0xc09f8080	-4.984436
121	0xc09f4826	-4.977557
122	0xc08f17a8	-4.4716377
123	0xc08f7cc9	-4.4839826
124	0xc0999a5f	-4.800094
125	0x3cd66968	0.026173308
126	0x3e97a2d2	0.2961641
127	0x3f05a4c0	0.52204514
128	0xbf8806b9	-1.0627052
129	0xbfe64bcc	-1.7991881
130	0x3f080d65	0.5314544
131	0x3f8a1b2a	1.078954
132	0x3f77d753	0.96812934
133	0x3f6f9659	0.9358879
134	0xbfd7db91	-1.6863881
135	0x3f56edfe	0.839569
136	0x3ff8340a	1.9390881
137	0x3f51c372	0.8193885
138	0x3e8b5827	0.27215692
139	0xbfd334a6	-1.6500442
140	0x3f31b68d	0.69419175
141	0x4025c960	2.590416
142	0x3fd53b4e	1.6658723
143	0x3ebd476f	0.36968562
144	0xbfd5902c	-1.6684623
145	0x3f08f636	0.5350069
146	0x3f56c3f2	0.8389274
147	0x3e317746	0.17330655
148	0xbfa4a43f	-1.2862624
149	0xbfd71507	-1.6803292
150	0xbd63dc74	-0.055630162
151	0xbd97f59e	-0.07419895
152	0x3e04b0fd	0.1295814
153	0xbe3808b8	-0.17972076
154	0xbfbcfc7d	-1.4764553
155	0xbe1f686e	-0.1556718
156	0xbe65711a	-0.22406426
157	0xbe7d09d0	-0.24710774
158	0xbe58e54d	-0.21181221
159	0xbfa0a124	-1.2549176
160	0xbeb17bcf	-0.3466477
161	0x3ecf4f17	0.40490028
162	0xc0928913	-4.5792327
163	0xbf7d8c2b	-0.99042004
164	0xbf9e4284	-1.2364049
165	0xbf28df8d	-0.6596611
166	0x3fc63751	1.5485631
167	0xc087b579	-4.2409024
168	0xbfd64c1d	-1.6741978
169	0xbfe5a525	-1.7941023
170	0xc036d466	-2.8567138
171	0xc08f1227	-4.470966
172	0xc0a18a47	-5.0481296
173	0xc001e627	-2.0296724
174	0xbffc561c	-1.9713778
175	0x3f044353	0.5166523
176	0x3ec4da6d	0.38447896
177	0x3f0834fc	0.5320585
178	0xbf87da0a	-1.0613415
179	0xbfd1cc6d	-1.6390511
180	0x3ee90fd7	0.45519897
181	0x3ef46968	0.4773667
182	0x3da20c65	0.0791252
183	0xbd4a8fe9	-0.04945365
184	0xbfd0bd2a	-1.6307728
185	0xbdaf8c60	-0.08571696
186	0x3fa8f2db	1.3199114
187	0x3f916ad3	1.1360725
188	0x3ddaa316	0.106756374
189	0xbfa9e918	-1.327426
190	0xbf512cc6	-0.81708944
191	0x4009e71e	2.1547313
192	0x3fc86e89	1.5658733
193	0x3ec2a2f6	0.38014954
194	0xbfb19e34	-1.3876405
195	0xbf979cb0	-1.1844692
196	0xbfd114a7	-1.6334428
197	0xbf8f67ea	-1.1203587
198	0xbf9f8f2b	-1.2465566
199	0xbfcbad75	-1.591231
200	0xc0906559	-4.5123715
201	0xc093dc35	-4.6206307
202	0xc0934f1c	-4.603407
203	0xc072112f	-3.7822988
204	0xc05bab85	-3.4323437
205	0xc094a3be	-4.644988
206	0xc09e9280	-4.9553833
207	0xc0b2d454	-5.588419
208	0xc08ccc00	-4.3999023
209	0xc06235dd	-3.5345376
210	0xc0912c1d	-4.536635
211	0xc09d927c	-4.9241314
212	0xc09cb925	-4.8976007
213	0xc0851d03	-4.1597915
214	0xc06b7ebf	-3.679611
215	0xc08ab528	-4.334614
216	0xc0a8bb5a	-5.27287
217	0xc095de6d	-4.6834016
218	0xc0825a93	-4.0735564
219	0xc06b0cfa	-3.672667
220	0xc07f6dbe	-3.9910731
221	0xc08bd937	-4.3702655
222	0xc084a099	-4.144604
223	0xc06afc8e	-3.6716647
224	0xc05939eb	-3.39416
225	0xbda37a78	-0.079823434
226	0xbe056df2	-0.13030222
227	0xbdcef70e	-0.10105716
228	0xbfe3315e	-1.7749441
229	0xbfde612d	-1.7373406
230	0x3dcd615c	0.100283355
231	0x3f725bed	0.9467152
232	0x3ff04dbc	1.8773723
233	0xbfdf120d	-1.7427384
234	0xbfe014c5	-1.7506338
235	0x3eef98c8	0.4679625
236	0x3fc41ac7	1.5320672
237	0x3ff6ff20	1.9296608
238	0x3eeea37b	0.466091
239	0xbfe14b21	-1.7601053
240	0x3ed4b526	0.41544455
241	0x3fe9e740	1.8273697
242	0x3f999429	1.199834
243	0xbe69215e	-0.22766635
244	0xbfdf95d0	-1.7467594
245	0x3ee699ca	0.45039207
246	0x3f0b4f6c	0.54418063
247	0xbd8156f7	-0.06315415
248	0xbfe28d59	-1.7699386
249	0xbfe2637b	-1.7686609
250	0xbf2e5c06	-0.68109167
251	0xbf26c12f	-0.65138525
252	0xbebc5e3c	-0.36790645
253	0xbf9a290e	-1.2043779
254	0xc001bc4c	-2.0271177
255	0xbedcb836	-0.43109292

fc1.bias f4 [12]
0	0xbfec4676	-1.8459003
1	0x4086bbf1	4.210442
2	0xbf405128	-0.75123835
3	0xbf973089	-1.1811687
4	0x40782919	3.8775084
5	0xbf4f9dd2	-0.8110019
6	0xbf148222	-0.58011067
7	0xbf26a553	-0.65096015
8	0x40870bca	4.220189
9	0xbf20f702	-0.62876904
10	0xbf3fe445	-0.74957687
11	0xbf4593e6	-0.771788

actor.weight f4 [4, 12]
0	0x3f96c982	1.1780245
1	0x40400f5b	3.0009372
2	0x3fba8d6f	1.4574412
3	0xbeea3e76	-0.4575078
4	0x3e9bf3b3	0.30459365
5	0x3ed1c372	0.40969425
6	0xc0bce57d	-5.9030137
7	0x3f9f1cf2	1.2430708
8	0x3fc184b7	1.5118626
9	0x3f4df08b	0.80445164
10	0x3fcbeec8	1.5932245
11	0x3f4ab16a	0.7917696
12	0x3f8eba9c	1.1150699
13	0xc0662d64	-3.5965204
14	0x3ef661ae	0.481214
15	0x3fad7e57	1.3554181
16	0x3e9aa15a	0.30201226
17	0x3f6e9ad0	0.93204975
18	0x41031bef	8.19432
19	0x3f6c5cad	0.9232891
20	0x3fc13533	1.509436
21	0x3f5ed7dd	0.8704813
22	0x3eaba2d0	0.33522654
23	0x3f88383a	1.0642159
24	0x3f965964	1.174603
25	0xc0889a38	-4.2688255
26	0x3ed106a8	0.4082539
27	0x3fd553d8	1.6666212
28	0x3e95a9e0	0.29231167
29	0x3f863b6b	1.0486883
30	0xc04136c2	-3.0189672
31	0x3f5fafef	0.8737783
32	0x3fc16dc9	1.5111629
33	0x3f344974	0.7042458
34	0x3e1fde57	0.1561216
35	0x3f859356	1.0435588
36	0x3f8f4c94	1.1195245
37	0xc08ddb32	-4.4330072
38	0x3ea36796	0.31914967
39	0x3ff0a5f0	1.880064
40	0x3ec8afb5	0.39196554
41	0x3f8dab5c	1.106792
42	0xc09cfd37	-4.90591
43	0x3f49eb33	0.7887451
44	0x3fc2765b	1.5192369
45	0x3f3bb3fc	0.7332151
46	0xbd09355b	-0.03349815
47	0x3f879d18	1.0594816

actor.bias f4 [4]
0	0x3f051797	0.5198912
1	0x3f0527cd	0.52013856
2	0x3f05551d	0.52083
3	0x3f043842	0.5164834

critic.weight f4 [1, 12]
0	0x41028612	8.157732
1	0xc1da63d8	-27.298752
2	0x3fa31336	1.2740238
3	0x3eeea083	0.46606836
4	0xc1d417bf	-26.511595
5	0x3fb39e9b	1.4032778
6	0x4082e6fc	4.0906963
7	0x4061acf2	3.5261807
8	0xc1baa516	-23.330608
9	0x3f9d5120	1.2290382
10	0x3fc43fa6	1.5331924
11	0x3f9b6d01	1.214264

exp_avg f4 [12, 25]
0	0x3655b222	3.184316e-06
1	0x36d9b29e	6.4878977e-06
2	0x35d71d44	1.6027266e-06
3	0x22a9346b	4.586304e-18
4	0x3a764d65	0.0009395688
5	0xb737a19e	-1.0945279e-05
6	0x41b689a5	22.81721
7	0x4124514e	10.26985
8	0xbf910781	-1.1330415
9	0x2204b767	1.7986428e-18
10	0x3b03f127	0.0020132752
11	0x388d101f	6.726407e-05
12	0xbf120af3	-0.5704796
13	0x3b09d0df	0.0021029038
14	0x20079fdf	1.1487842e-19
15	0x3b852972	0.0040637786
16	0x41b67912	22.809116
17	0xb8efabe2	-0.00011428424
18	0x000b7176	1.050893e-39
19	0x87741a60	-1.8364271e-34
20	0x3c3fc758	0.011705242
21	0xbc8dcaf2	-0.017308686
22	0x1d8437f4	3.4997963e-21
23	0x80000004	-6e-45
24	0x80000004	-6e-45
25	0x80000004	-6e-45
26	0x9b805cd6	-2.1235817e-22
27	0x130823fc	1.7183355e-27
28	0x9b46071a	-1.6380471e-22
29	0x035e8d72	6.5402308e-37
30	0x00000004	6e-45
31	0x309788aa	1.1025538e-09
32	0x3769e92d	1.3942173e-05
33	0xc029b595	-2.651708
34	0x80000004	-6e-45
35	0x00000004	6e-45
36	0xbf86127b	-1.047439
37	0x3e9fa3f6	0.3117978
38	0x2ace9a7e	3.6700151e-13
39	0x00000004	6e-45
40	0x80000004	-6e-45
41	0x3f1fa5f8	0.62362623
42	0x36e01498	6.6781176e-06
43	0xac836bb1	-3.7352e-12
44	0x9fb0b705	-7.484168e-20
45	0x80000004	-6e-45
46	0x1c3f785f	6.3352175e-22
47	0xacc03b80	-5.463574e-12
48	0x80000004	-6e-45
49	0x80000004	-6e-45
50	0x2d805484	1.4589448e-11
51	0x0000003c	8.4e-44
52	0x3daf92fd	0.08572958
53	0xbd12aaec	-0.035807535
54	0xa59aa1ce	-2.6824385e-16
55	0xb603af01	-1.9622387e-06
56	0x40745284	3.8175364
57	0x3fb1ced1	1.389124
58	0xbd095628	-0.03352943
59	0x25813ad5	2.24178e-16
60	0x14b35083	1.8106137e-26
61	0xb1797216	-3.629912e-09
62	0xbe221d77	-0.15831552
63	0x3e5b5bb1	0.21421696
64	0xbdf17bce	-0.11791192
65	0x1445e563	9.991197e-27
66	0x40744479	3.8166792
67	0xb3cef45a	-9.63707e-08
68	0x2a305ede	1.5664854e-13
69	0x29d45d08	9.4308296e-14
70	0x152e4635	3.5194404e-26
71	0x99138889	-7.627295e-24
72	0x2b33ace2	6.38335e-13
73	0x2b3e04ee	6.75084e-13
74	0xa8c2bbed	-2.1619826e-14
75	0xadd7fae9	-2.4554097e-11
76	0x000000b6	2.55e-43
77	0x3da9470f	0.082655065
78	0xbc598fd2	-0.013278918
79	0x2230cc10	2.3960478e-18
80	0x8003fae0	-3.65503e-40
81	0xc0ddbf09	-6.9295697
82	0x3f629a4a	0.88516676
83	0x3dd2762e	0.10276447
84	0xa0d32017	-3.5766026e-19
85	0x39a0dd20	0.0003068233
86	0xb0dd9c3a	-1.6124269e-09
87	0xc099ddf1	-4.8083425
88	0x3e9b383f	0.3031635
89	0x3d8caa61	0.06868435
90	0xba48907b	-0.0007650924
91	0xc0dd5a6b	-6.9172873
92	0xb72557c2	-9.855199e-06
93	0x8b002644	-2.468069e-32
94	0x84ae0c75	-4.0918643e-36
95	0x3a9f97df	0.0012175998
96	0xba6870ef	-0.0008866926
97	0x223c643d	2.5531817e-18
98	0x80000004	-6e-45
99	0x80000004	-6e-45
100	0x80000004	-6e-45
101	0x00000004	6e-45
102	0x80000004	-6e-45
103	0x8d979b01	-9.343409e-31
104	0x00000004	6e-45
105	0x3e96326a	0.29335338
106	0xbf28586d	-0.6575993
107	0x376a0812	1.3949366e-05
108	0xbedca129	-0.43091705
109	0x80000004	-6e-45
110	0x3ed69de5	0.4191734
111	0x80000004	-6e-45
112	0xb70c35c3	-8.357168e-06
113	0x80000004	-6e-45
114	0x00000004	6e-45
115	0x80000004	-6e-45
116	0xb4a986b8	-3.1576724e-07
117	0x00000004	6e-45
118	0x80000004	-6e-45
119	0x80000004	-6e-45
120	0x80000004	-6e-45
121	0x00000004	6e-45
122	0x00000004	6e-45
123	0x80000004	-6e-45
124	0x80000004	-6e-45
125	0xacc397ba	-5.5590784e-12
126	0x00000004	6e-45
127	0x3e00cf3f	0.12579058
128	0xbd1e5ca4	-0.038662568
129	0xbbc01d5c	-0.005862875
130	0x00100494	1.47101e-39
131	0xbfd86626	-1.6906173
132	0x3fed5b9b	1.8543581
133	0x3dce958a	0.10087116
134	0x2562bd76	1.9666567e-16
135	0xbd40ce34	-0.04707165
136	0x3d817c51	0.063225396
137	0xc0666588	-3.599947
138	0x3ec7c0b9	0.39014223
139	0xbd50b8e9	-0.050957594
140	0x39cc93ab	0.00039019933
141	0xbfdb6503	-1.7140201
142	0xbc1b2069	-0.009468176
143	0x2dbfe67b	2.181654e-11
144	0xaa9770ef	-2.6901352e-13
145	0x3b0ecc87	0.0021789388
146	0xbb413118	-0.0029478725
147	0x2a6e1a88	2.1147851e-13
148	0x2b9f45ac	1.1316967e-12
149	0x28dcd398	2.451667e-14
150	0x2ea8c641	7.6749725e-11
151	0x00000004	6e-45
152	0xbf3f5ca0	-0.7475071
153	0x3dd6a8ba	0.10481401
154	0x00000004	6e-45
155	0x80000004	-6e-45
156	0x421f23d0	39.784973
157	0x419b734d	19.4313
158	0x3f94a481	1.1612703
159	0x00000004	6e-45
160	0x00000004	6e-45
161	0xb275dc64	-1.4310988e-08
162	0x80000004	-6e-45
163	0xad1ac083	-8.796633e-12
164	0x00000004	6e-45
165	0x00000004	6e-45
166	0x421f9959	39.899754
167	0x80000004	-6e-45
168	0x00000004	6e-45
169	0x00000004	6e-45
170	0x00000004	6e-45
171	0x00000004	6e-45
172	0x00000004	6e-45
173	0x80000004	-6e-45
174	0x00000004	6e-45
175	0x2d21fadd	9.207493e-12
176	0x00000004	6e-45
177	0x3e884f29	0.26622894
178	0xbdc37306	-0.09543423
179	0xbce16a40	-0.027516484
180	0x0025c560	3.468718e-39
181	0x40160f04	2.3446665
182	0x409efced	4.9683747
183	0x3f0a8aa0	0.54117775
184	0x217ccd30	8.5652484e-19
185	0x2eb6dbaa	8.315422e-11
186	0x3c7109ff	0.014711856
187	0xc0a2ae8f	-5.0838084
188	0x3f4a6b4d	0.7906998
189	0xbe5f14b4	-0.21785241
190	0x0340dcaa	5.667704e-37
191	0x401452cc	2.3175535
192	0xbce93b87	-0.028470768
193	0x2b038d8b	4.673698e-13
194	0x288f1c91	1.5888578e-14
195	0x84df0506	-5.243166e-36
196	0x98b43d6d	-4.6590934e-24
197	0x2b95d314	1.0645673e-12
198	0x2c2bed15	2.4432169e-12
199	0x27f447a8	6.7801294e-15
200	0x80000004	-6e-45
201	0x9b6616f2	-1.9032568e-22
202	0x9baa7ae5	-2.820356e-22
203	0x9b588b06	-1.7912022e-22
204	0xbdb7a51d	-0.0896704
205	0x3e83b5f9	0.25724772
206	0xbf1402bd	-0.5781668
207	0x3a2e437b	0.00066476286
208	0xc000a2eb	-2.0099437
209	0x12389b2e	5.8251436e-28
210	0xbf28134b	-0.6565444
211	0xbfa73125	-1.3061873
212	0xbad9a604	-0.0016605263
213	0x3946babd	0.00018952317
214	0x3b034320	0.0020029023
215	0x40609a06	3.5094008
216	0xc0027bc8	-2.038805
217	0x91c2630d	-3.0668848e-28
218	0x0fa1bf67	1.5949551e-29
219	0x9070a087	-4.745532e-29
220	0x0000000f	2.1e-44
221	0x9ae24cfc	-9.3595784e-23
222	0x922b7edb	-5.4114447e-28
223	0x00000004	6e-45
224	0xa9ea211e	-1.03974324e-13
225	0x351250b9	5.4506705e-07
226	0x3581bbbe	9.665889e-07
227	0x3dafd103	0.08584788
228	0xbcfd9490	-0.03095463
229	0x3b93e47d	0.004513322
230	0xb5e161b7	-1.6792245e-06
231	0x3f2d9d1a	0.6781784
232	0x3fdae21a	1.7100251
233	0x3cb51d2b	0.022108635
234	0x20a2682e	2.7512808e-19
235	0x39cca013	0.00039029177
236	0xb17a6cdd	-3.644167e-09
237	0xc0039464	-2.055932
238	0x3e877620	0.2645731
239	0xbdad0d6f	-0.08449828
240	0x3a3ea9d7	0.0007273233
241	0x3f2ed9dc	0.6830118
242	0xb8085290	-3.250182e-05
243	0x2a3d549a	1.6815924e-13
244	0x86029b1d	-2.4564242e-35
245	0x3ae5e408	0.0017539272
246	0xbb2a81d4	-0.0026017325
247	0x2ac0c193	3.424037e-13
248	0x80000004	-6e-45
249	0x80000004	-6e-45
250	0x2dbf4d8d	2.1748625e-11
251	0x00000004	6e-45
252	0x3db50bf4	0.088401705
253	0x2142b492	6.596874e-19
254	0xa07c09fa	-2.1348531e-19
255	0x001adbac	2.466526e-39

exp_avg_sq f4 [12, 25]
0	0x43866004	268.75012
1	0x437b56f1	251.33961
2	0x43d97909	434.9456
3	0x4363b2f2	227.699
4	0x42df6e79	111.71577
5	0x4411017b	580.02313
6	0x44afacf4	1405.4048
7	0x44eacef6	1878.4675
8	0x43b509ef	362.0776
9	0x43eb9611	471.1724
10	0x43b3914f	359.13522
11	0x43187fad	152.49873
12	0x43bcb6a1	377.4268
13	0x436b2015	235.12532
14	0x433f6498	191.39294
15	0x443cbde5	754.9671
16	0x452f834b	2808.2058
17	0x427e4094	63.563065
18	0x43234727	163.27794
19	0x42945338	74.16254
20	0x442f1deb	700.46747
21	0x4437da12	735.40735
22	0x440b94aa	558.3229
23	0x41e13a1f	28.15338
24	0x3f13f65e	0.577978
25	0x4258a4a6	54.16079
26	0x429f280f	79.57824
27	0x43b4f990	361.9497
28	0x443b055a	748.0836
29	0x444aabd2	810.6847
30	0x40933c43	4.601106
31	0x442c5857	689.3803
32	0x456428f1	3650.5588
33	0x450c2863	2242.5242
34	0x3f7662ec	0.9624469
35	0x3f0b8d36	0.54512346
36	0x4582ba85	4183.315
37	0x46b48ee2	23111.441
38	0x4470356a	960.8346
39	0x4184c063	16.593939
40	0x415754f4	13.4582405
41	0x47ac110d	88098.1
42	0x4565dc32	3677.7622
43	0x43893dbe	274.48236
44	0x432d927b	173.57219
45	0x3b840ee6	0.0040300963
46	0x44d455e7	1698.6844
47	0x43145573	148.33379
48	0x38c53cf5	9.405046e-05
49	0x3d95be01	0.07311631
50	0x40b15707	5.5418735
51	0x4074493b	3.8169696
52	0x411f0cbc	9.940609
53	0x4082d332	4.0882807
54	0x40e39bab	7.1127524
55	0x418cb737	17.58946
56	0x4175daf8	15.365959
57	0x42dda47c	110.82126
58	0x417b8f43	15.722476
59	0x41421198	12.129295
60	0x400a6326	2.1623015
61	0x4167cb05	14.487065
62	0x42b87738	92.23285
63	0x412b1076	10.691519
64	0x400dee25	2.2176602
65	0x40afc65b	5.4929633
66	0x4237008b	45.75053
67	0x41547d74	13.280628
68	0x415c2b2b	13.760539
69	0x4162521e	14.145048
70	0x40dc939f	6.89302
71	0x41b3bda8	22.467606
72	0x40eec734	7.461817
73	0x40c5baa8	6.179035
74	0x401b2c7a	2.4245896
75	0x409b03df	4.8442225
76	0x4064e5b4	3.57652
77	0x40eb62c4	7.3558064
78	0x3fb927d3	1.4465278
79	0x3f677a7f	0.9042129
80	0x3fefedb2	1.8744414
81	0x40bdc82e	5.930686
82	0x4243f24b	48.986614
83	0x40146297	2.3185174
84	0x3f0f6aa7	0.56022114
85	0x404de5c3	3.2171485
86	0x408ec70c	4.4617977
87	0x41db26b1	27.393892
88	0x4187fcf2	16.998508
89	0x3e4da598	0.200827
90	0x40995d1d	4.7926164
91	0x42a81b28	84.05304
92	0x4132d791	11.1776285
93	0x3fe9d0e1	1.826687
94	0x3cb8f1bc	0.022576205
95	0x40cc27e2	6.3798685
96	0x40a6e64c	5.2156124
97	0x4107a0b5	8.476735
98	0x3dcff816	0.101547405
99	0x39d7b4a9	0.00041142598
100	0x42fdc2e6	126.88066
101	0x434f98c0	207.59668
102	0x438f60f1	286.75735
103	0x42ba1858	93.04755
104	0x44299846	678.3793
105	0x44cb9575	1628.6705
106	0x43e31865	454.19058
107	0x4560e5df	3598.367
108	0x44e2747b	1811.64
109	0x3f685ef8	0.9076991
110	0x44068072	538.00696
111	0x408d1f27	4.410053
112	0x420acc8b	34.69975
113	0x34497fc9	1.8766072e-07
114	0x42da77f9	109.23432
115	0x41409fa8	12.038979
116	0x46766b13	15770.769
117	0x42f9bdab	124.870445
118	0x411928d1	9.572465
119	0x439fea70	319.83154
120	0x3b3c5216	0.002873545
121	0x32a435a4	1.9116506e-08
122	0x40d3a8f2	6.614373
123	0x38caaa36	9.663815e-05
124	0x3d8d39bd	0.06895778
125	0x409fe312	4.9964685
126	0x4119cdbb	9.612727
127	0x41be0744	23.753548
128	0x40c62d9c	6.1930676
129	0x412f583e	10.9590435
130	0x4145084a	12.314524
131	0x41917c4f	18.185698
132	0x4319d321	153.82472
133	0x41b8acad	23.084314
134	0x41472f5d	12.449063
135	0x41bfff3a	23.999622
136	0x418e5647	17.792128
137	0x42c164ee	96.69713
138	0x41563f06	13.390387
139	0x423da4c6	47.41091
140	0x41cff66e	25.995327
141	0x42c2516d	97.159035
142	0x419e7476	19.806866
143	0x41891fec	17.140587
144	0x41b058ea	22.043415
145	0x41e7cf4f	28.976225
146	0x422fc0b8	43.9382
147	0x4152436e	13.141462
148	0x41453739	12.325982
149	0x407eaeb1	3.9794123
150	0x4380113f	256.13474
151	0x4239d336	46.45626
152	0x4157ad97	13.47988
153	0x41807748	16.058243
154	0x000001f4	7e-43
155	0x3f8ca016	1.0986354
156	0x43ea667e	468.80072
157	0x4477775f	989.8652
158	0x429d365d	78.60618
159	0x25431270	1.6919801e-16
160	0x40912a28	4.536396
161	0x4335f12a	181.94205
162	0x000001f4	7e-43
163	0x41fb8bc3	31.443243
164	0x2f9ed024	2.8887925e-10
165	0x418b08d8	17.379318
166	0x45718a5f	3864.6482
167	0x000001f4	7e-43
168	0x40b8ebb1	5.778771
169	0x3b6ac9c3	0.0035825826
170	0x000001f4	7e-43
171	0x000001f4	7e-43
172	0x000001f4	7e-43
173	0x26942bb4	1.0281409e-15
174	0x37893e0d	1.6360567e-05
175	0x422506f2	41.256783
176	0x4223fcdf	40.996944
177	0x42a8149c	84.04025
178	0x41e836f4	29.026833
179	0x41f371c2	30.430546
180	0x42b8e561	92.448006
181	0x4211e176	36.470177
182	0x44333fd2	716.9972
183	0x4293634c	73.69394
184	0x421ebefd	39.686512
185	0x4190f707	18.120619
186	0x42fac3d1	125.382454
187	0x440e4185	569.02374
188	0x428604bb	67.00924
189	0x41686c29	14.526406
190	0x4185c5fa	16.721668
191	0x43bc152f	376.1655
192	0x42e9dad5	116.92741
193	0x42d6ba96	107.364426
194	0x4124b0f0	10.293198
195	0x423d1373	47.268993
196	0x4241ea6c	48.478928
197	0x43507d4f	208.48949
198	0x41d17979	26.184313
199	0x40b01036	5.501979
200	0x44a4c7da	1318.2454
201	0x43ae39c5	348.45132
202	0x44477da4	797.96313
203	0x44de36eb	1777.7162
204	0x44cd6163	1643.0433
205	0x44c699b4	1588.8032
206	0x442ee3ab	699.5573
207	0x454e77ae	3303.48
208	0x44e2a1ba	1813.054
209	0x44857620	1067.6914
210	0x444c9b82	818.4298
211	0x4402128c	520.2898
212	0x43b4a84e	361.31488
213	0x43edce4b	475.61166
214	0x4392c3bf	293.52927
215	0x4485b579	1069.671
216	0x465ac03c	14000.059
217	0x441c9a16	626.4076
218	0x448600de	1072.0271
219	0x42c5390f	98.61144
220	0x4398b9c6	305.45135
221	0x4471672a	965.61194
222	0x432ca478	172.64246
223	0x42c8d1c9	100.40974
224	0x431ea19d	158.6313
225	0x410fc864	8.9864235
226	0x40f776eb	7.7332664
227	0x417667f2	15.400377
228	0x40bde017	5.9336047
229	0x4139aef4	11.605213
230	0x415ef151	13.933915
231	0x412fa738	10.978325
232	0x42b255ea	89.1678
233	0x410daa8b	8.854136
234	0x40b6b082	5.7090464
235	0x4132852d	11.157514
236	0x4148938a	12.53602
237	0x4285a375	66.81925
238	0x41186605	9.524907
239	0x409615d2	4.6901636
240	0x41927585	18.307383
241	0x421f1aed	39.776295
242	0x4113c7f8	9.2363205
243	0x4118867a	9.532831
244	0x4007b392	2.120335
245	0x41a30b25	20.380442
246	0x4194d765	18.605173
247	0x41a1fe57	20.24919
248	0x3f787f37	0.97069114
249	0x3c75e285	0.01500762
250	0x40f9bf67	7.8046145
251	0x40b29a54	5.581339
252	0x4176b887	15.420051
253	0x409aef26	4.841693
254	0x40523733	3.284619
255	0x417d72bd	15.840512

exp_avg f4 [12]
0	0x421085e4	36.130753
1	0xc089dcb7	-4.3081927
2	0x40bf8987	5.985538
3	0xc1379cec	-11.475811
4	0xbfcf4b6b	-1.6194891
5	0xc042e17d	-3.0450127
6	0x4284ffca	66.49959
7	0x407739fe	3.8629146
8	0xc0895c42	-4.292512
9	0x3f5a3d0a	0.8524939
10	0x411010f1	9.004136
11	0xbf5a42fc	-0.8525846

exp_avg_sq f4 [12]
0	0x46246a28	10522.539
1	0x4889ac8e	281956.44
2	0x438d9d16	283.22723
3	0x43ab5a77	342.70676
4	0x47ac4987	88211.055
5	0x4406bfe1	538.9981
6	0x4627bef7	10735.741
7	0x44e25da7	1810.9266
8	0x47880f57	69662.68
9	0x433460ea	180.37857
10	0x43b482b0	361.021
11	0x4366c867	230.78282

exp_avg f4 [4, 12]
0	0xbe2a6c18	-0.16642797
1	0xbb8dadb3	-0.004323685
2	0x4119f1fb	9.621577
3	0x408e831d	4.453505
4	0x3ba28018	0.0049591176
5	0x4108bed5	8.54659
6	0xbe0f9473	-0.14021473
7	0x40e28975	7.0792794
8	0xbd4da9ff	-0.05021095
9	0x410b0b2d	8.690228
10	0x408212a8	4.0647774
11	0x40cf685e	6.48149
12	0x3e8dde4e	0.27708668
13	0x3bce2cd9	0.0062919674
14	0x3fde389c	1.7361026
15	0x3f861122	1.0473979
16	0xbb1de874	-0.0024094852
17	0x3f9bfece	1.2187135
18	0x3ef26967	0.4734604
19	0xbe992d5e	-0.29917425
20	0x3c68d4fa	0.014210934
21	0x3f886824	1.0656781
22	0x3f3667c0	0.7125206
23	0x3f4d62cd	0.80228883
24	0xbd885294	-0.066563755
25	0xbc04aeba	-0.008098299
26	0xc0c2a56d	-6.0826936
27	0xc04240cb	-3.0352046
28	0x3b87e856	0.0041475696
29	0xc0a88693	-5.2664275
30	0xbe6fcf14	-0.23418838
31	0xc068a50a	-3.6350732
32	0x3dfbf6bf	0.123029225
33	0xc0a80921	-5.2511144
34	0xc026c001	-2.605469
35	0xc07db5d9	-3.964224
36	0xbd349cea	-0.044094957
37	0x3bc8de4a	0.0061300145
38	0xc0a8ccb2	-5.274987
39	0xc01dce01	-2.4656985
40	0xbbdb7435	-0.0066972026
41	0xc08ff6ca	-4.4988756
42	0xbdcade9a	-0.09905739
43	0xc0494835	-3.1450322
44	0xbdb23c5a	-0.087029174
45	0xc0902741	-4.5047917
46	0xc00aff40	-2.1718292
47	0xc0547398	-3.3195553

exp_avg_sq f4 [4, 12]
0	0x4244328a	49.049355
1	0x3de4bf91	0.11169351
2	0x4260acaf	56.168636
3	0x414a1b2e	12.631636
4	0x3a527fdb	0.0008029916
5	0x42849c40	66.305176
6	0x3dc3d37b	0.09561821
7	0x4249cea7	50.45181
8	0x40588838	3.3833141
9	0x429dc3fc	78.88278
10	0x4221abc5	40.417744
11	0x426c14e9	59.02042
12	0x42269667	41.646877
13	0x3c803ce9	0.015654044
14	0x422d7bce	43.370903
15	0x4181f6dd	16.245539
16	0x3a5f7812	0.0008524667
17	0x426e70d7	59.610195
18	0x3e725752	0.23666123
19	0x41e5e34b	28.735983
20	0x402a4ca7	2.6609285
21	0x4271549c	60.332626
22	0x41f9c964	31.223335
23	0x42488323	50.128063
24	0x41f8fc2f	31.123137
25	0x3df950fd	0.121736504
26	0x422ae091	42.719303
27	0x418dbe0d	17.717798
28	0x3a2dbc6e	0.00066275045
29	0x426ad4ad	58.70769
30	0x3db9f75f	0.090803854
31	0x41e7f6eb	28.995565
32	0x40517e94	3.2733507
33	0x42484bbd	50.073963
34	0x41f211cd	30.258692
35	0x424e4514	51.56746
36	0x41c4a2a6	24.579418
37	0x3c31bcad	0.0108482065
38	0x41e7dc77	28.982649
39	0x4137d7b1	11.490159
40	0x3a8d6ec2	0.0010790455
41	0x42320710	44.506897
42	0x3d29302a	0.0413057
43	0x41b0f21d	22.11822
44	0x408cce7c	4.4002056
45	0x421bbea9	38.93619
46	0x419f76bc	19.932976
47	0x421537a9	37.304356

exp_avg f4 [4]
0	0x40a645c0	5.1960144
1	0x3f2ad2cc	0.667279
2	0xc038e22c	-2.8888044
3	0xc03e5e09	-2.9744895

exp_avg_sq f4 [4]
0	0x42ecbcfb	118.3691
1	0x42e87cb3	116.24355
2	0x42e250e1	113.15797
3	0x42ce8613	103.26186

exp_avg f4 [1, 12]
0	0x3b413c00	0.0029485226
1	0x3e4c00e6	0.19922218
2	0x3f0886bb	0.5333058
3	0x3f6dfc11	0.9296275
4	0x3e31867e	0.17336461
5	0x3f7b4b82	0.9816209
6	0x3f4d4292	0.80179703
7	0xbf92d2f7	-1.1470631
8	0x3dcbe9f7	0.09956735
9	0xbd38eaa5	-0.04514565
10	0xbedefaf3	-0.43550834
11	0xbeb6d64c	-0.3571037

exp_avg_sq f4 [1, 12]
0	0x42f63feb	123.12484
1	0x43b07db4	352.98206
2	0x42c985ed	100.76157
3	0x4228f1dd	42.236195
4	0x43834465	262.53433
5	0x42cd77ed	102.73423
6	0x4214c3f0	37.191345
7	0x42addf33	86.935936
8	0x43a3966b	327.17514
9	0x42d59f34	106.81094
10	0x4274ab06	61.167015
11	0x42ace52f	86.447624
